models/hawkes_dep_II.pth (torch, 332235 bytes, 10 tensors)

context_init f4 [64]
0	0xbf0b74df	-0.54475206
1	0x3efa3641	0.48869517
2	0xbf202772	-0.6256019
3	0x3e212ab6	0.15738949
4	0xbe9d1753	-0.30681857
5	0xbdd1ab2e	-0.10237728
6	0xbf1aa630	-0.6040983
7	0x3f0040c7	0.5009884
8	0xbdd2836b	-0.10278972
9	0x3f0c9a75	0.5492318
10	0x3eb086d0	0.34477854
11	0x3f146c30	0.5797758
12	0xbec06160	-0.3757429
13	0x3e802e94	0.25035536
14	0x3ebaa2d2	0.36452347
15	0xbed23801	-0.41058353
16	0x3edab081	0.42712787
17	0x3e5b72d5	0.21430524
18	0xbec7eae7	-0.39046404
19	0x3f074e71	0.5285407
20	0xbf09d5ee	-0.53842056
21	0x3edf3474	0.43594706
22	0xbee0f53e	-0.43937105
23	0xbebb9a0d	-0.3664097
24	0x3f1e7f2c	0.619128
25	0xbf1084a1	-0.56452376
26	0x3ebeffd5	0.3730456
27	0xbebef864	-0.37298882
28	0xbf078404	-0.52935815
29	0x3eb5255f	0.35380074
30	0xbdea7d32	-0.1144966
31	0xbeba2510	-0.363564
32	0x3db11e81	0.08648396
33	0xbee6856b	-0.45023665
34	0xbe9503be	-0.29104418
35	0xbe24969f	-0.16073082
36	0x3ef78c1d	0.48349085
37	0x3ed4bd40	0.41550636
38	0x3f215bd0	0.6303072
39	0x3edefb1a	0.4355095
40	0xbedf5421	-0.43618873
41	0x3ea360eb	0.3190988
42	0x3edd3c80	0.4321022
43	0xbed83607	-0.4222872
44	0x3ef331da	0.4749897
45	0x3ee5a5da	0.44853097
46	0x3eebebcc	0.46078336
47	0xbf0aa29c	-0.5415437
48	0x3eee06cc	0.4648956
49	0xbeb9cf4c	-0.36290967
50	0xbf01a985	-0.5064929
51	0xbf164ae1	-0.58708006
52	0xbebd74e8	-0.37003255
53	0x3ebfc401	0.37454227
54	0x3d32d0f8	0.04365632
55	0x3cf36528	0.029711321
56	0x3ee26431	0.44217065
57	0xbee4f06b	-0.44714674
58	0xbe56bb0c	-0.2096979
59	0x3e822b30	0.25423574
60	0xbee1b5fb	-0.44084153
61	0xbe891004	-0.2677003
62	0x3ebef014	0.3729254
63	0xbf08b0c0	-0.533947

weight f4 [5, 32]
0	0x3e8e950f	0.27848098
1	0xbd672b23	-0.056437623
2	0xbed4e448	-0.41580415
3	0x403596b0	2.8373222
4	0x3f9bf629	1.2184497
5	0xbf61860b	-0.8809516
6	0x4023b994	2.5582018
7	0x3f7cd7f6	0.9876703
8	0xbfc87d59	-1.5663253
9	0x4004b0c9	2.07329
10	0x3eecd553	0.46256503
11	0xbf2aaf6f	-0.6667394
12	0xbf9c88b6	-1.2229221
13	0xbed0baef	-0.4076762
14	0xbd11a967	-0.035561945
15	0x3ea34058	0.31885028
16	0xbfe67efd	-1.8007504
17	0xbfa3b628	-1.2789965
18	0x3dc89300	0.09793663
19	0xbfd2981a	-1.6452668
20	0x3f5eed99	0.87081295
21	0x3e50b9c6	0.20383367
22	0xbfc66421	-1.5499307
23	0x3d9930d9	0.0748002
24	0x3fa00df8	1.2504263
25	0xbf04b320	-0.51835823
26	0xbf25def9	-0.64793354
27	0x3f5f2d9e	0.8717898
28	0x3fa2398d	1.2673813
29	0x3e73e3d3	0.23817377
30	0x3e0734dd	0.1320376
31	0x3fa83fc9	1.3144466
32	0xc01d5d02	-2.4588017
33	0x3ec9a9ed	0.39387456
34	0x3f7f820e	0.9980782
35	0x3fcbd83a	1.5925362
36	0xbd8ebc29	-0.069694825
37	0xbeccc775	-0.39995924
38	0x3ce9d65f	0.028544603
39	0xbfa90d0b	-1.3207105
40	0xbf0b6487	-0.5445027
41	0xbf2ed154	-0.6828816
42	0xbed5f34b	-0.4178718
43	0xbf4a3609	-0.789887
44	0x3eb2df9a	0.3493622
45	0xbf33888f	-0.70130247
46	0xbfa35bd7	-1.2762402
47	0xbf8945dc	-1.0724444
48	0x3f6dfd54	0.92964673
49	0xbfc17df7	-1.5116566
50	0xbe991a8a	-0.2990306
51	0x3c813dbc	0.015776508
52	0x3ef11b60	0.47091198
53	0xbfecab3c	-1.8489757
54	0x3f0d49d1	0.5519076
55	0xbfe5bcb2	-1.794821
56	0x3e932dc8	0.28745866
57	0xbf4a1c5f	-0.7894954
58	0x3f014476	0.5049509
59	0x3f2f6b99	0.68523556
60	0x3f0dc083	0.55371875
61	0xbeaba9b5	-0.33527914
62	0x3f832322	1.0245097
63	0x3f0ece91	0.55783945
64	0x3f83e925	1.0305525
65	0x3f32b1c2	0.69802487
66	0xbe8d8abf	-0.27644917
67	0xbe6ffdff	-0.23436736
68	0xbfd1931a	-1.6373017
69	0x3fc701ac	1.5547385
70	0xbf1d8b4b	-0.6154067
71	0xbff6c450	-1.927866
72	0x3f664512	0.8994914
73	0xbf21ca3b	-0.63199204
74	0x3f148b3a	0.5802494
75	0x3ecc2096	0.3986861
76	0x3ed811bd	0.42201033
77	0x3ed41470	0.41421843
78	0xbf4e6d26	-0.806353
79	0xbfdc5028	-1.7211962
80	0x3f45d0dd	0.77271825
81	0xbfb7fd09	-1.4374095
82	0xbf642780	-0.8912277
83	0xbfdf9bf9	-1.7469474
84	0x3fccbf5f	1.5995902
85	0x3f3a4088	0.72754717
86	0xbf5ea2b3	-0.8696701
87	0x3cbce2f4	0.023057438
88	0xbe1a5e5d	-0.15075059
89	0xbe5d943b	-0.21638577
90	0xbf463fc4	-0.7744105
91	0x3e924821	0.28570655
92	0xbf744bec	-0.9542835
93	0x3ebaa815	0.3645636
94	0x3fca1e13	1.5790428
95	0x3f670be3	0.9025251
96	0x3f73830f	0.95121855
97	0xbf8a56bf	-1.0807723
98	0xbf36596a	-0.71230185
99	0x3f85f0ed	1.046415
100	0x3f20bbf4	0.62786794
101	0x3d41825c	0.04724346
102	0xbf2a74e2	-0.665846
103	0x3f0a4fe0	0.5402813
104	0x3f73e71d	0.95274526
105	0xbcae5d7f	-0.021284817
106	0x3f0cc32b	0.549853
107	0x3ede0409	0.43362454
108	0xbfc5851f	-1.543125
109	0x3fb2198d	1.3914047
110	0x3f41e11f	0.7573413
111	0x3fa53c91	1.2909108
112	0x3fbbac6a	1.4661992
113	0xbfe03c49	-1.7518398
114	0xbe85702c	-0.26062143
115	0x3d449e19	0.048002336
116	0xbf1d5a1b	-0.61465615
117	0xbfb367d6	-1.4016063
118	0x3f64ea55	0.8942006
119	0xbe60b852	-0.21945313
120	0x3fc65d4f	1.5497226
121	0xbfc26200	-1.5186157
122	0xbf733ac5	-0.9501155
123	0x3f761840	0.9613075
124	0xbf2f7a9b	-0.68546456
125	0x3f3aaeda	0.7292305
126	0x3f00a07c	0.5024488
127	0x3ebf36f3	0.3734661
128	0x3e2121ff	0.15735625
129	0x3ee888a1	0.4541674
130	0xbe765186	-0.24054536
131	0xbeaaddfd	-0.3337249
132	0xbf825fc7	-1.0185479
133	0xbe75fdc7	-0.2402259
134	0xbf36dd74	-0.7143166
135	0xbe38cf09	-0.18047728
136	0xbe0fcd8f	-0.14043258
137	0x3f6dde07	0.9291691
138	0x3f807374	1.0035233
139	0xbeb60b0f	-0.35555312
140	0x3f79d34d	0.97588044
141	0xc0184b3a	-2.3795915
142	0x3e29537a	0.1653575
143	0x3e5389dc	0.20658058
144	0x3ecf5c2b	0.40500006
145	0x3e0ef1ce	0.13959429
146	0xbe5f3824	-0.2179876
147	0xbeb28053	-0.3486353
148	0x402da912	2.7134442
149	0x3f6fb10f	0.93629545
150	0xbfab8573	-1.34001
151	0xbe4439bb	-0.19162647
152	0x3f4822f1	0.78178316
153	0xbe22ea23	-0.15909629
154	0xbf0cd752	-0.5501605
155	0x3fa9ee9e	1.3275945
156	0xbf20dac9	-0.6283384
157	0x3fc394b3	1.5279754
158	0xbf15a4ce	-0.58454597
159	0x3ec6837e	0.38772196

weight f4 [5, 64]
0	0x3c66e2f7	0.014092199
1	0x3e0bd572	0.13655642
2	0xbda74325	-0.08167104
3	0x3d55f02d	0.052231003
4	0xbdd6fc40	-0.104973316
5	0xbd83eada	-0.06441279
6	0xbbe5bbc5	-0.0070109093
7	0x3db1376b	0.08653148
8	0x3dba56c8	0.090985835
9	0x3dc2377c	0.09483239
10	0x3cb20974	0.021733023
11	0x3dcc4335	0.09973756
12	0x3dcab391	0.09897531
13	0x3dd18f3e	0.102323994
14	0x3e29a48c	0.16566676
15	0xbdd7372c	-0.1050857
16	0xbc6ee6b4	-0.014581371
17	0x3e25ba5d	0.16184373
18	0xbb5ba9bb	-0.0033517915
19	0x3e086f45	0.13323696
20	0xbb099895	-0.0020995487
21	0x3c650326	0.013977801
22	0xbe3381ba	-0.17529956
23	0xbd444135	-0.04791375
24	0xbd2a1bae	-0.041530304
25	0xbdf77467	-0.12082749
26	0x3dd3fc5c	0.10350868
27	0xbd43b8e9	-0.047783766
28	0xbc8d1280	-0.017220736
29	0x3c7023f8	0.014657013
30	0xbda88173	-0.082278155
31	0xbd81a291	-0.06329835
32	0xbccbbb42	-0.024869565
33	0xbdcb267b	-0.09919449
34	0x3be8fbfe	0.007110118
35	0xbe195bb2	-0.14976385
36	0x3dbc48cb	0.09193572
37	0xbd477744	-0.048697725
38	0xbc5a5252	-0.013325291
39	0x3d04ec0f	0.032451686
40	0xbd48b6c0	-0.04900241
41	0x3d2738fe	0.040825836
42	0x3d8e8a3d	0.069599606
43	0x3d201eca	0.039091863
44	0x3d20cd80	0.03925848
45	0x3dec339d	0.11533282
46	0x3e64fd7a	0.22362319
47	0x3dd0fcaa	0.10204442
48	0x3ddf5348	0.109045565
49	0xbe11510a	-0.1419107
50	0x3daad767	0.08341866
51	0x3dd26fe4	0.10275248
52	0xbcd8f9eb	-0.026486358
53	0x3dab09b3	0.08351459
54	0x3dcbf428	0.099586785
55	0xbd0d8e57	-0.034559574
56	0xbd69a16e	-0.057038717
57	0xbdb09688	-0.086224616
58	0xbb2b221c	-0.002611286
59	0xbd99424e	-0.0748335
60	0xbcb1b0d3	-0.021690762
61	0x3d88fb66	0.066885754
62	0x3ddc7420	0.107643366
63	0x3e03e618	0.12880743
64	0x3e461d0b	0.19347017
65	0xbe0e7377	-0.13911234
66	0x3bb88243	0.005630763
67	0x3d3d6619	0.046239946
68	0xbdbc7662	-0.09202267
69	0xbe0d4f96	-0.13799891
70	0x3d828729	0.06373436
71	0xbe070adb	-0.13187735
72	0xbb8f77f2	-0.0043783123
73	0xbcb8e8e3	-0.022571987
74	0x3c639792	0.013891118
75	0xbe0075fb	-0.12545006
76	0x3d486bbc	0.04893087
77	0xbdd5648d	-0.10419569
78	0xbd9ac808	-0.07557684
79	0x3da6d389	0.08145816
80	0x3cc8999e	0.024487313
81	0x3e1715f8	0.14754474
82	0x3d61b056	0.055099808
83	0xbe148981	-0.14505579
84	0x3dfe7a53	0.12425675
85	0xbd0d7c43	-0.034542333
86	0x3e17686d	0.14785929
87	0x3dd808ae	0.105485305
88	0xbd7ae93c	-0.061257586
89	0x3e1f8d1c	0.15581173
90	0xbdf5868f	-0.11988556
91	0xbe50150b	-0.20320527
92	0x3d1c045e	0.038090102
93	0xbc72eff6	-0.014827719
94	0xbe0242a7	-0.12720738
95	0x3d3f36b7	0.04668304
96	0x3dc510f2	0.09622373
97	0x3e041da8	0.12901938
98	0xbc3f3273	-0.011669743
99	0xbe0f3a3a	-0.13987055
100	0xbde07cb2	-0.10961284
101	0xbe280317	-0.16407429
102	0xbe06496a	-0.13113943
103	0xbd78bd40	-0.060727358
104	0x3e054d33	0.1301773
105	0x3dd4902f	0.10379063
106	0xbd530e53	-0.051527333
107	0x3e3fc7a7	0.18728505
108	0x3d503e7e	0.050840847
109	0x3bb94bd8	0.005654793
110	0xbe81993a	-0.25312215
111	0x3dece4df	0.11567091
112	0xbe073cd8	-0.13206804
113	0x3cb01918	0.02149634
114	0x3da0a9cc	0.07844886
115	0x3ba44865	0.005013513
116	0x3dde0372	0.10840501
117	0x3d559f1b	0.052153688
118	0xbe0bbb04	-0.1364556
119	0x3c1c136a	0.009526113
120	0x3cb5ab30	0.022176355
121	0x3db5ec6d	0.08882985
122	0xbdb89ac7	-0.090138964
123	0xbdaceb84	-0.084433585
124	0x3d9e790c	0.077379316
125	0xbdd335b0	-0.103129745
126	0xbcbe5526	-0.023233961
127	0x3cda2806	0.026630413
128	0xbdf09243	-0.11746647
129	0x3dffc5cf	0.12488901
130	0xbcf30f42	-0.029670361
131	0x3cd76506	0.026293289
132	0xbcd2ba32	-0.02572355
133	0xbd407fa9	-0.046996746
134	0x3d1ed4d6	0.038777195
135	0x3d98082b	0.07423433
136	0x3cb41949	0.021984713
137	0xbd0a4105	-0.033753414
138	0x3e048951	0.12943007
139	0x3dcdecf9	0.100549646
140	0xbd3ac846	-0.045601152
141	0xbb5bb1d9	-0.0033522754
142	0x3cdd06ae	0.026980724
143	0xbdfcab03	-0.123373054
144	0x3d0895a4	0.033345833
145	0xbd275d83	-0.040860664
146	0xbdb3f5b9	-0.08787102
147	0xbd9501c7	-0.072757296
148	0xbdb6b10d	-0.089204885
149	0x3df91a82	0.12163259
150	0xbe23e261	-0.16004325
151	0x3dda167d	0.106488205
152	0xbda9587c	-0.0826883
153	0xbda81941	-0.08207942
154	0x3dad9bf4	0.08477011
155	0x3c50b908	0.012739427
156	0xbd5b4951	-0.053536717
157	0x3ca65216	0.020302814
158	0xbcd36738	-0.025806054
159	0x3be7fea1	0.0070799147
160	0x3db391ec	0.08768067
161	0xbd32d651	-0.04366142
162	0xbdb748fb	-0.08949467
163	0xbb42833f	-0.002968028
164	0xbd9ae4db	-0.07563182
165	0x3d9ead80	0.07747936
166	0x3dd0af18	0.101896465
167	0xbd180d8d	-0.037122298
168	0xbdfa92e2	-0.12235047
169	0x3d48ec50	0.04905349
170	0x3c747fc4	0.01492304
171	0x3d51d558	0.05122885
172	0x3e0ca32e	0.13734123
173	0x3dc367fe	0.09541319
174	0x3b6cb313	0.0036117479
175	0xbc4bd479	-0.012440794
176	0x3d5060d2	0.050873585
177	0x3e15d37d	0.14631458
178	0xbde7182f	-0.112839095
179	0xbdd5ac3c	-0.10433242
180	0x3c241a04	0.010015968
181	0x3d9be8fe	0.07612799
182	0xbd300fb4	-0.042983726
183	0x3d49d58d	0.049275924
184	0x3d8c0ba0	0.06838155
185	0xbdbcb4b8	-0.09214157
186	0x3dd89e0f	0.10577022
187	0x3db9c15b	0.09070083
188	0xbd9a136e	-0.07523237
189	0xbd8a3b4b	-0.067495905
190	0xbcc511d9	-0.024056362
191	0xbde6fa31	-0.11278189
192	0xbc67a8db	-0.014139379
193	0x3d6c6a7c	0.05771874
194	0xbd57ca2e	-0.052683048
195	0x3d0568b4	0.032570556
196	0x3de43b0d	0.111440755
197	0x3d85b692	0.06528963
198	0xbb868186	-0.004104796
199	0x3d682d9b	0.056684118
200	0xbd03f008	-0.032211334
201	0xbcc6de19	-0.024275826
202	0xbd741eaf	-0.059599575
203	0x3dd682c1	0.10474158
204	0x3def2d9a	0.1167862
205	0x3daaa321	0.083318956
206	0xbde2b6e3	-0.11070039
207	0x3dbc3f88	0.09191805
208	0x3d59c264	0.0531639
209	0xbe4b7b06	-0.19871148
210	0x3dd850fd	0.10562322
211	0x3cb948f5	0.022617796
212	0xbd9b2ed7	-0.07577293
213	0xbde649b6	-0.11244528
214	0xbd09d17a	-0.033647038
215	0x3d20c00e	0.039245658
216	0x3cc44ac8	0.02396144
217	0xbd5437ac	-0.051810905
218	0xbc290ed6	-0.010318479
219	0x3d9d8251	0.076908715
220	0xbdc884e9	-0.097909756
221	0x3bb4df2d	0.0055197687
222	0x3cd7fa7c	0.026364557
223	0x3d8f6b5f	0.07002901
224	0x3bf62f71	0.0075129797
225	0xbd3f8800	-0.04676056
226	0xbdbab32a	-0.09116204
227	0x3dae64c6	0.08515315
228	0x3cb700d1	0.022339256
229	0xbd559cf8	-0.05215165
230	0x3c305f35	0.010764887
231	0x3e0a5df9	0.1351241
232	0x3db45466	0.0880516
233	0xbd3927c3	-0.045203935
234	0xbde32100	-0.110902786
235	0x3d33bc7c	0.043880925
236	0xbdcbf644	-0.09959081
237	0x3c702786	0.014657861
238	0x3d20a31d	0.039218057
239	0xbd3e17b6	-0.04640933
240	0x3d8faf10	0.070158124
241	0x3dcdf8e6	0.10057239
242	0xbd711406	-0.058856986
243	0xbd8bcd6e	-0.06826292
244	0x3e150e38	0.14556205
245	0xbdcafbf7	-0.0991134
246	0xbdb4ea76	-0.088337824
247	0x3ddc3901	0.1075306
248	0xbe13aa87	-0.1442052
249	0xbd610360	-0.05493486
250	0x3e1109cd	0.14163895
251	0x3d425dd2	0.047452755
252	0x3d0b3b57	0.033992138
253	0x3de3a1d9	0.11114854
254	0x3d8edee2	0.06976105
255	0xbe043b5f	-0.12913273

bias f4 [5]
0	0x3c984812	0.018589053
1	0xbd99c930	-0.075090766
2	0x3de35034	0.11099282
3	0x3db6fbc8	0.08934742
4	0xbc0111c7	-0.007877774

weight_ih_l0 f4 [192, 33]
0	0xbfaeae8a	-1.3647015
1	0xbc8b3a3d	-0.016995544
2	0xbd9ebafb	-0.077505074
3	0xbdc90e18	-0.09817141
4	0x3c10584d	0.008810115
5	0x3cb3d90b	0.02195408
6	0xbdd24c40	-0.1026845
7	0xbe0d00f7	-0.137699
8	0xbc925422	-0.017862383
9	0xbd0160e4	-0.031586543
10	0xbd6f44f1	-0.058415357
11	0xbd88bdab	-0.06676801
12	0x3d322c46	0.043499254
13	0x3cad844b	0.021181246
14	0xbdab9b24	-0.083792
15	0x3e018757	0.12649284
16	0x3c57e5df	0.013177364
17	0xbdb961e0	-0.09051871
18	0xbc3d71c8	-0.011562772
19	0xbc12a298	-0.008949898
20	0x3dd0b5d4	0.10190931
21	0xbb63e7c1	-0.0034775587
22	0x3d855035	0.06509439
23	0x3be6a2a0	0.0070384294
24	0xbdc5a381	-0.096503265
25	0x3da375a5	0.07981423
26	0xbd9fe064	-0.07806471
27	0x3db42c10	0.08797467
28	0xbd9e2ef0	-0.07723796
29	0xbd8d0097	-0.06884878
30	0xbd812a72	-0.06306924
31	0x3a3fa030	0.00073099416
32	0x3d1de580	0.038548946
33	0x3e987e83	0.2978402
34	0x3dc3fc09	0.09569556
35	0xbe251d54	-0.16124469
36	0xbc8166c9	-0.015796082
37	0xbdb93b96	-0.09044568
38	0xbd9ed596	-0.07755582
39	0xbd91e4cb	-0.07123717
40	0x3d7382a8	0.059450775
41	0x3d738d68	0.059461027
42	0x3e04635a	0.12928525
43	0x3d4b85d5	0.04968818
44	0x3c8e969b	0.017405799
45	0x3d3a6664	0.045507804
46	0xbdb23cb3	-0.08702984
47	0xbdb04231	-0.08606375
48	0x3cb644ec	0.022249661
49	0x3915c5f5	0.00014283492
50	0x3d401a3f	0.04690003
51	0x3db10de6	0.08645229
52	0x3dc51f9c	0.0962517
53	0xbd3d78d2	-0.0462578
54	0x3d0f00bd	0.034912813
55	0xbe2e2b0f	-0.17008613
56	0x3d203fcf	0.039123353
57	0xbdc6104a	-0.09671076
58	0x3e1dd9eb	0.1541516
59	0xbdce2453	-0.10065522
60	0xbb76bbc1	-0.003764853
61	0xbbd87120	-0.0066052824
62	0xbc7c1374	-0.015385497
63	0xbd8c8ca0	-0.068627596
64	0xbe1152b7	-0.1419171
65	0x3dc4abf0	0.09603107
66	0xbe9e7a31	-0.309526
67	0xbe8cfba4	-0.27535737
68	0x3aaebf8d	0.0013332233
69	0x3e2be1a9	0.16785301
70	0x3c6ce8af	0.014459773
71	0xba625e59	-0.0008635275
72	0xbd88ce3f	-0.06679963
73	0x3bc36e75	0.0059640952
74	0x3c011aef	0.007879957
75	0x3db3de2c	0.0878261
76	0x3db43b9d	0.08800433
77	0x3dc6bc6b	0.097039066
78	0xbe2f9ddf	-0.17150067
79	0x3df53de4	0.11974695
80	0xbd2504fa	-0.04028795
81	0xbe0cc89c	-0.13748401
82	0xbdc966b1	-0.0983404
83	0x3d7d886d	0.061897684
84	0x3d4c139c	0.04982339
85	0xbca80b4c	-0.0205132
86	0x3d023fd2	0.031799145
87	0xbda3a1ec	-0.079898685
88	0xbe08ba75	-0.13352378
89	0x3d01c3aa	0.03168074
90	0xbdd0c384	-0.10193542
91	0x3db4a46a	0.08820422
92	0xbdb615dd	-0.08890889
93	0x3df83701	0.12119866
94	0x3de638ec	0.11241326
95	0x3d8f5c8d	0.070000745
96	0xbcb4c8dd	-0.022068435
97	0xbd606452	-0.054783173
98	0xbdac3cdc	-0.084100455
99	0xbe15cf50	-0.14629865
100	0x3bf2a59f	0.0074049975
101	0xbdb8406f	-0.08996665
102	0x3cacd33d	0.02109682
103	0xbcb5505b	-0.022133043
104	0x3de2e3d4	0.11078611
105	0xbcb2af28	-0.021812037
106	0xbd6ab7e2	-0.05730427
107	0xbd8417b0	-0.064498305
108	0x3d26a394	0.040683344
109	0x3d0809ad	0.033212353
110	0x3d69023a	0.05688689
111	0xbdbd42ee	-0.092412814
112	0xbe05452f	-0.13014673
113	0x3cf6dea2	0.030135456
114	0xbe047544	-0.12935358
115	0xbce745c6	-0.028231513
116	0x3deb8565	0.11500052
117	0x3c95413b	0.01821958
118	0xbd2fe13a	-0.042939402
119	0x3d9079a2	0.070544496
120	0xbca101ed	-0.019654239
121	0xbd62051e	-0.05518066
122	0xbabb85a2	-0.0014306793
123	0x3d4a4213	0.04937942
124	0xbd70c0d4	-0.058777645
125	0xbae281c9	-0.0017281111
126	0xbce75e10	-0.028243095
127	0x3db0d51c	0.086343974
128	0x3d81cf97	0.06338423
129	0x3c602d8b	0.013682733
130	0x3df38955	0.118914284
131	0x3d45f74d	0.048331548
132	0xbeecbde5	-0.46238628
133	0x3d319067	0.043350603
134	0xbddbe6de	-0.10737394
135	0x3d79a8b4	0.060951903
136	0x3dc36f93	0.095427655
137	0xbc03c608	-0.00804282
138	0x3d55cafa	0.052195527
139	0x3dafab8f	0.08577644
140	0xbd38cfa2	-0.04511989
141	0xbd028abf	-0.0318706
142	0x3dd1e24e	0.10248242
143	0xbd32d942	-0.043664224
144	0x3a90ac61	0.0011037701
145	0x3c27f5ae	0.010251446
146	0x3c0f30c1	0.008739651
147	0xbc261280	-0.010136247
148	0xbcc1e3f7	-0.023668272
149	0x3cfe1eea	0.0310206
150	0x3d531041	0.051529173
151	0x3d6cec70	0.057842672
152	0xbbaa57d0	-0.0051984563
153	0x3d891f4b	0.06695422
154	0x3dbc1e20	0.091854334
155	0x3dd21ed0	0.10259783
156	0x3c8aa14f	0.016922621
157	0xbd8bdd5f	-0.068293326
158	0xbe0aef2c	-0.135678
159	0x3d6a3a57	0.057184543
160	0x3aec10d7	0.001801039
161	0xbd51c312	-0.051211424
162	0x3d843694	0.064557225
163	0xbe0b0fdd	-0.1358027
164	0xbd443a24	-0.04790701
165	0xbd3e0633	-0.04639263
166	0xbe5adaad	-0.2137248
167	0xbc043452	-0.008069115
168	0x3e366ae8	0.17814219
169	0xbafc0f86	-0.00192307
170	0xbdc5836a	-0.09644206
171	0x3d032b79	0.03202388
172	0xbdc744bd	-0.09729908
173	0xbc69312e	-0.014232917
174	0xbe3f625d	-0.18689866
175	0x3e0e0ced	0.13872118
176	0x3c8441ee	0.016144719
177	0xbdd96409	-0.10614783
178	0xb917a596	-0.00014462168
179	0xbe22195a	-0.15829983
180	0x3d1efabf	0.03881335
181	0xbcbd5022	-0.0231095
182	0xbd751d03	-0.05984212
183	0xbd3e491c	-0.04645644
184	0xbdb66bd8	-0.08907288
185	0x3ca3a042	0.019973878
186	0xbdbdb5ed	-0.09263215
187	0xbd8d19be	-0.068896756
188	0xbd407913	-0.046990465
189	0xbe6a2cff	-0.22868727
190	0x3dc687fd	0.096939065
191	0x3cb2fda2	0.021849457
192	0x3d34b198	0.04411468
193	0x3bc05d8e	0.0058705276
194	0xbda5064c	-0.08057842
195	0x3db0f999	0.08641357
196	0x3ca48a0d	0.020085359
197	0xbde4cf8e	-0.111724004
198	0x3e15fbee	0.14646885
199	0xbcdf33fe	-0.027246471
200	0xbddc8705	-0.107679404
201	0x3d899493	0.067177914
202	0x3d510f56	0.051040016
203	0x3e0b6e27	0.13616239
204	0xbdfca73f	-0.12336587
205	0x3dd57e64	0.10424498
206	0x3db7f19f	0.089816324
207	0x3d80508f	0.06265365
208	0x3d7f38f8	0.06231019
209	0xbddbd81c	-0.10734579
210	0xbdc32ae5	-0.09529666
211	0xbe49a682	-0.19692424
212	0xbd2cf6d7	-0.042227592
213	0xbd39d89e	-0.045372598
214	0x3d40fc58	0.047115654
215	0x3d573843	0.05254389
216	0xbb274921	-0.0025525766
217	0xbd7fc740	-0.06244588
218	0x3ddc169d	0.10746501
219	0x3d408643	0.047003042
220	0xbd978719	-0.07398815
221	0x3e1431cb	0.1447212
222	0xbd963edb	-0.073362075
223	0x3d66824b	0.0562766
224	0x3de213f5	0.11038963
225	0x3ceafd15	0.028685132
226	0x3c875583	0.016520267
227	0x3df1fe89	0.11816127
228	0xbe13a86e	-0.1441972
229	0x3dc31271	0.09525002
230	0xbda43e6d	-0.08019719
231	0x3ec551d9	0.38539007
232	0x3c99cece	0.01877537
233	0xbd02652a	-0.03183476
234	0x3d44bcc8	0.0480316
235	0x3e20993d	0.15683456
236	0xbbdf9e2b	-0.006824275
237	0xbdbbfee9	-0.0917948
238	0x3e28105c	0.1641249
239	0x3e0506f6	0.12990937
240	0x3be6384a	0.007025753
241	0x3cc2b0fe	0.023766037
242	0x3cded5aa	0.027201492
243	0x3dc552e1	0.096349485
244	0xbe4ed217	-0.2019733
245	0x3d6f5f1f	0.058440324
246	0x3e150500	0.14552689
247	0xbd6567d9	-0.05600724
248	0x3ba30a1d	0.004975571
249	0xbe164104	-0.14673239
250	0x3debfd7a	0.11522956
251	0x3ca8212e	0.020523634
252	0xbde6f1da	-0.11276598
253	0x3ccaeff1	0.024772616
254	0xbd74c7bb	-0.05976079
255	0x3e040169	0.12891163

weight_hh_l0 f4 [192, 64]
0	0xbb68d764	-0.0035528773
1	0xbdf368cf	-0.11885225
2	0xbdffae28	-0.124843895
3	0x3db2fc3b	0.087395154
4	0x3da01e55	0.078182854
5	0xbdea121b	-0.114292346
6	0x3cfa1bdb	0.03053086
7	0x3dc74f0b	0.09731873
8	0x3d68ed6f	0.05686706
9	0xbdb01a6a	-0.08598788
10	0x3e303707	0.17208491
11	0xbe6c655a	-0.23085538
12	0xbcde6aa3	-0.027150458
13	0x3e10546b	0.14094703
14	0xbd639360	-0.05556047
15	0xbc909eb9	-0.01765381
16	0x3d08a288	0.033358127
17	0x3c57736d	0.013150078
18	0xbd87885d	-0.06617806
19	0x3dde2c46	0.10848288
20	0x3e09f23a	0.13471308
21	0x3ddef8b9	0.10887284
22	0x3d876312	0.06610693
23	0xbdbccdfd	-0.09218977
24	0x3e4da9a6	0.20084247
25	0x3e850a11	0.25984243
26	0x3d0eaaf4	0.034831002
27	0xbdc10c0a	-0.094261244
28	0x3db29371	0.087195285
29	0x3e7b224a	0.24524799
30	0x3e11bb6e	0.14231655
31	0x3bdb0212	0.0066835964
32	0x3e127811	0.14303614
33	0xbcbc07b6	-0.022952896
34	0xbe4635fe	-0.19356534
35	0x3d1613f8	0.036640137
36	0x3d657bb8	0.05602619
37	0x3c537566	0.012906408
38	0x3cc72fc8	0.024314776
39	0xbd888d79	-0.06667609
40	0xbc42ca54	-0.011889059
41	0x3dcdefbb	0.100554906
42	0xbabb5f6a	-0.0014295403
43	0xbc760e04	-0.01501799
44	0xbd0c72ad	-0.03428905
45	0x3df47241	0.11935855
46	0xbdf61acd	-0.120168306
47	0xbdefa300	-0.11701012
48	0xbe173423	-0.14765982
49	0xbc9c2aa4	-0.019063301
50	0x3dbfbd0d	0.093622304
51	0x3d8c245d	0.06842873
52	0xbd9e3ded	-0.07726655
53	0x3dbceb46	0.09224562
54	0xbe16b934	-0.14719087
55	0xbbc77c15	-0.00608779
56	0x3e0b5dc4	0.13609987
57	0x3c9932c9	0.018700974
58	0x3dd960ac	0.10614142
59	0x3cbfde58	0.023421451
60	0xbd800d88	-0.06252581
61	0x3dc79959	0.097460456
62	0xbcd13a8b	-0.02554061
63	0xbdb39df2	-0.0877036
64	0x3dbe3a37	0.09288447
65	0x3e95b6df	0.29241082
66	0x3d8dd361	0.06925083
67	0x3d96d70d	0.073652364
68	0xbd069c6e	-0.032864027
69	0x3d88ec90	0.06685746
70	0xbd72a663	-0.05924071
71	0x3e161df8	0.1465987
72	0xbd2c0e14	-0.042005613
73	0x3e0d4263	0.13794856
74	0xbb28b878	-0.0025744718
75	0x3dac2fa5	0.08407525
76	0xbc5bce67	-0.013415909
77	0x3dd65b53	0.104666375
78	0x3b8f0447	0.0043645236
79	0xbd943162	-0.072359815
80	0x3e23b8b5	0.15988429
81	0x3dbd565b	0.092449866
82	0x3d0b1850	0.033958733
83	0x3da79b2c	0.081838936
84	0xbe7dac90	-0.24772859
85	0xbdc57792	-0.09641947
86	0x3e1496c3	0.14510636
87	0x3cea5467	0.0286047
88	0xbdfb4613	-0.12269225
89	0xbdbe8e3a	-0.09304471
90	0xbda445fd	-0.08021162
91	0x3e409daf	0.18810152
92	0xbd95e183	-0.073184036
93	0x3da6a76c	0.08137402
94	0x3c16d012	0.009204881
95	0xbddd8682	-0.10816671
96	0xbc74c4b8	-0.0149394795
97	0xbdfb4c7d	-0.12270448
98	0xbe4fb06d	-0.20282145
99	0xbe1b2b2c	-0.15153188
100	0xbb426650	-0.0029663034
101	0x3d186c76	0.03721281
102	0x3e05684d	0.13028069
103	0xbe18fd0e	-0.14940283
104	0x3c12f9dc	0.008970704
105	0xbd49692c	-0.049172565
106	0xbd0440c7	-0.03228834
107	0x3e0ad509	0.13557829
108	0xbdd083f3	-0.10181417
109	0x3e4a3807	0.19747935
110	0x3e162caa	0.14665475
111	0x3e075cf7	0.13219057
112	0x3ab1097a	0.0013506853
113	0x3e0116cd	0.12606354
114	0xbbe8ef02	-0.00710857
115	0x3c1ed936	0.009695342
116	0x3c4a8a2d	0.012362045
117	0xbe068080	-0.13134956
118	0xbdc1ddca	-0.09466131
119	0x3dc600e2	0.09668137
120	0xbc4956a9	-0.012288728
121	0xbdcdacb0	-0.10042703
122	0x3e838d89	0.2569392
123	0xbd93fc88	-0.07225901
124	0xbc9bbf7a	-0.019012202
125	0xbd4a1a6c	-0.049341604
126	0x3dae8db7	0.08523124
127	0x3d994126	0.07483129
128	0xbca6a32e	-0.020341482
129	0xbcd42ec7	-0.025901211
130	0xbdde44a7	-0.10852938
131	0xbd6c79ec	-0.05773346
132	0x3c6e0256	0.014526924
133	0x3dc625db	0.09675189
134	0x3dc02aa8	0.09383136
135	0xbe17a0d5	-0.14807446
136	0x3ceedebf	0.029158948
137	0xbe219762	-0.15780404
138	0xbbf0cfa5	-0.007348972
139	0x3e1430da	0.1447176
140	0xbd78194e	-0.060571007
141	0xbea333b0	-0.31875372
142	0xbba9f4d4	-0.0051866565
143	0x3b8738f9	0.0041266647
144	0xbc9851aa	-0.018593628
145	0xbd6b2747	-0.057410505
146	0x3d9048ad	0.07045112
147	0x3d84209f	0.064515345
148	0x3d8e7939	0.06956715
149	0xbd83b9ce	-0.06431924
150	0x3dc6fb5e	0.09715913
151	0x3d324196	0.04351958
152	0xbe00a6a2	-0.12563565
153	0xbccd1e11	-0.02503875
154	0x3dd90354	0.10596338
155	0x3d75e23c	0.060030207
156	0xbd538598	-0.051641077
157	0xbdf546c6	-0.119763896
158	0x3bcbfd90	0.0062252954
159	0xbe19162f	-0.14949869
160	0xbdc8423a	-0.09778257
161	0x3c33bee0	0.010970801
162	0x3e693636	0.22774586
163	0x3dad94e7	0.084756665
164	0xbaa10d08	-0.0012287209
165	0x3b1d977a	0.0024046586
166	0x3e12f235	0.14350207
167	0xbe06362b	-0.13106601
168	0xbdabde54	-0.08392015
169	0xbca7496c	-0.020420752
170	0x3d6a0418	0.05713281
171	0xbd7d2cd9	-0.06181035
172	0xbd4e4e5e	-0.050367706
173	0x3d0b079f	0.033942815
174	0xbd0f339f	-0.03496134
175	0x3c881e3c	0.01661598
176	0x3dd761b7	0.105166845
177	0x3d6be463	0.057590853
178	0xbe092c1b	-0.13395731
179	0xbcebc1fb	-0.02877902
180	0xbbdf492c	-0.0068141427
181	0xbd3d6bb6	-0.0462453
182	0xbd2643d6	-0.040592037
183	0x3d02032a	0.0317413
184	0xbd9f84b3	-0.07788982
185	0xbd3ee72c	-0.04660718
186	0x3e180803	0.14846806
187	0xbdbbdb87	-0.09172731
188	0xbdef7265	-0.11691741
189	0x3df3ac8a	0.118981436
190	0xbd8d7de6	-0.06908779
191	0xbdae55c4	-0.08512452
192	0xbda06d24	-0.07833317
193	0x3d536820	0.051612973
194	0xbd53900c	-0.051651046
195	0xbd9de3e0	-0.07709479
196	0xbd0f04ec	-0.034916803
197	0xbdfb76b1	-0.12278498
198	0xbda268d2	-0.07930149
199	0xbd755634	-0.059896663
200	0x3d39f883	0.045403015
201	0xbd06054b	-0.03271989
202	0x3cad96f3	0.021190142
203	0x3dab0cf2	0.083520785
204	0xbe002b6d	-0.12516566
205	0x3e1fd492	0.15608433
206	0x3e39875d	0.18118043
207	0xbd882f7a	-0.066496804
208	0x3d86cafd	0.06581686
209	0xbbf629b4	-0.0075122956
210	0xbe065cda	-0.13121358
211	0x3d0b02ee	0.03393834
212	0xbc474173	-0.0121616
213	0x3e010e90	0.12603211
214	0xbe06b9a7	-0.13156758
215	0xbe2f752e	-0.17134544
216	0x3e1818f0	0.14853263
217	0x3e32c1ec	0.17456788
218	0x3e124e6f	0.14287733
219	0xbd77a742	-0.060462244
220	0xbbb824a0	-0.0056196004
221	0x3dadad44	0.084803134
222	0x3d462292	0.048372813
223	0x3d8eff98	0.069823444
224	0xbc8f49d1	-0.017491253
225	0x3d5a1397	0.05324134
226	0xbe7db541	-0.24776174
227	0xbc9d0740	-0.019168496
228	0x3da0b0d9	0.07846231
229	0xbe02824c	-0.12745017
230	0x3ca03a43	0.019559031
231	0x3cf4ee04	0.029898651
232	0x3c902b06	0.01759864
233	0x3e4d47ce	0.20046923
234	0x3d753de6	0.059873484
235	0x3d9f1c26	0.07769041
236	0x3d2c422c	0.042055294
237	0xbbc4798d	-0.0059959353
238	0x3e548543	0.2075396
239	0xbc28ccad	-0.010302705
240	0xbda53874	-0.08067408
241	0xbe469f0d	-0.1939661
242	0xbc056da6	-0.008143818
243	0xbdae0928	-0.0849784
244	0x3d08038e	0.033206515
245	0x3da54e64	0.080715925
246	0xbe154b3d	-0.14579482
247	0x3db5072d	0.08839259
248	0x3c47e04a	0.012199471
249	0x3d8c6d8b	0.06856831
250	0xbe277174	-0.16351873
251	0x3e19c89c	0.15017933
252	0xbebb77aa	-0.36614734
253	0xbdb14efb	-0.086576425
254	0x3d2e40bd	0.042542208
255	0xbe1bec11	-0.15226771

bias_ih_l0 f4 [192]
0	0x3dd75154	0.10513559
1	0xbceb7946	-0.028744351
2	0xbda98546	-0.08277373
3	0x3d0d4a32	0.034494586
4	0xbdd7e890	-0.10542405
5	0xbcae29ab	-0.021260103
6	0xbdcf13e4	-0.10111216
7	0x3d7ecfb4	0.0622098
8	0xbdfdae69	-0.12386782
9	0xbbefcfc6	-0.0073184697
10	0xbda883da	-0.08228274
11	0xbd8bfc94	-0.06835285
12	0xbd5b7302	-0.053576477
13	0x3cc18d6b	0.023627004
14	0xbdcf9849	-0.10136468
15	0x3d9b3a95	0.07579533
16	0x3c19e233	0.009392309
17	0xbcc318bd	-0.023815507
18	0x3dba4fcd	0.09097252
19	0xbcfdfff9	-0.031005846
20	0x3da5adb1	0.0808977
21	0x3d83991b	0.06425687
22	0x3c80016b	0.015625676
23	0x3d3d1f2f	0.046172317
24	0x3e061817	0.13095127
25	0xbd9268e0	-0.071489096
26	0x3cec26e2	0.028827135
27	0xbb81893c	-0.003953127
28	0xbc9a66b3	-0.018847799
29	0xbd19bb91	-0.037532393
30	0x3c265455	0.010151942
31	0xbd966910	-0.07344258
32	0x3ce62c1e	0.028097209
33	0xbdce2e3d	-0.10067413
34	0xbb9a28f9	-0.0047045914
35	0x3d45d52e	0.048299007
36	0x39b0d4fa	0.00033728016
37	0xbdb158f5	-0.08659545
38	0x3d848e73	0.064724825
39	0x3bcc2770	0.0062302873
40	0x3d24bf58	0.040221542
41	0x3c7c7253	0.015408116
42	0x3d30866c	0.043096945
43	0xbdb4c9f0	-0.08827579
44	0xbcd6955d	-0.026194269
45	0x3cc39980	0.023876905
46	0x3c41ad9a	0.011821175
47	0xbdb92310	-0.09039891
48	0x3cf4c1b8	0.029877529
49	0x3d86cabb	0.065816365
50	0xbd4ec28e	-0.05047851
51	0x3cb586b3	0.022158956
52	0xbdd01f55	-0.10162226
53	0xbd98190f	-0.074266545
54	0xbdca5cfb	-0.09881016
55	0x3da965d0	0.08271372
56	0x3d95b1e1	0.07309318
57	0xbd4e64c3	-0.050389063
58	0xbd377655	-0.044790585
59	0x3b877e86	0.004134956
60	0x3d971bf4	0.073783785
61	0xbd5759e8	-0.052575976
62	0x3dcb3030	0.099213004
63	0x3bdb05cd	0.006684041
64	0xbe9942ac	-0.2993368
65	0xbd67a834	-0.056556895
66	0xbe91c265	-0.28468624
67	0x3e31143c	0.17292875
68	0xbca98a48	-0.02069582
69	0x3b924e99	0.004464936
70	0x3cba5ffc	0.022750847
71	0xbe2d69a5	-0.16934831
72	0xbd41f40c	-0.04735188
73	0x3d5ae1e8	0.053438097
74	0xbe1318a9	-0.14364876
75	0x3dbae82a	0.09126313
76	0xbd747f01	-0.059691433
77	0x3d3ec2aa	0.046572365
78	0xbcd70c17	-0.026250882
79	0xbd79eecc	-0.06101875
80	0x3e3c7c1d	0.1840672
81	0x3dfb392a	0.122667626
82	0xbedf2e07	-0.43589804
83	0xbe886d34	-0.26645815
84	0x3dedca38	0.11610836
85	0xbe1f091d	-0.1553082
86	0xbce7afc8	-0.028282061
87	0x3dcd0c63	0.10012128
88	0x3da813d1	0.08206905
89	0xbcac4298	-0.021027848
90	0xbda23118	-0.0791952
91	0x3e04bee3	0.12963443
92	0xbd30763d	-0.04308151
93	0x3cf693e8	0.030099824
94	0xbd3f9997	-0.046777334
95	0xbdb17b0f	-0.0866605
96	0xbd1ca6ec	-0.038245127
97	0xbe5ca31e	-0.215466
98	0x3db4d262	0.0882919
99	0xbdd52fdc	-0.10409519
100	0xbdcce92a	-0.1000541
101	0xbe518ffb	-0.2046508
102	0xbd11e958	-0.035622925
103	0xbde056eb	-0.10954078
104	0x3d96b0cb	0.07357939
105	0xbcaf269f	-0.02138072
106	0xbd1491ee	-0.036271982
107	0xbe266292	-0.16248539
108	0xbe79c4e6	-0.24391517
109	0xbe197422	-0.14985707
110	0xbc474ef6	-0.012164822
111	0xbe2a6a92	-0.16642216
112	0xbe11f07b	-0.14251892
113	0x3d64b687	0.055838134
114	0x3c9b9c94	0.01899556
115	0xbd305724	-0.043051854
116	0xbe9ff940	-0.3124485
117	0xbde84bf4	-0.11342612
118	0xbacc74cd	-0.0015598774
119	0x3da70784	0.0815573
120	0xbe3a038d	-0.18165417
121	0xbe28d742	-0.16488364
122	0xbe34d6b2	-0.17660025
123	0xbd4ad19b	-0.0495163
124	0x3c6300b1	0.013855145
125	0x3c9069f4	0.017628647
126	0xbdb8d2cf	-0.090245835
127	0xbdccc4c6	-0.09998469
128	0xbc2f2954	-0.010691006
129	0xbcbb12ec	-0.022836171
130	0xbd836338	-0.06415409
131	0xbdc86427	-0.097847275
132	0xbe0abda5	-0.13548906
133	0xbd9637b5	-0.07334844
134	0xbd0c53e4	-0.03425969
135	0x3df43aed	0.11925302
136	0x3da38b4f	0.079855554
137	0x3cddcec8	0.02707614
138	0x3b8a3281	0.0042174463
139	0xbd4ab2e3	-0.049487006
140	0xbcb110aa	-0.021614391
141	0xbd2b0491	-0.0417524
142	0x3e0e8386	0.1391736
143	0xbdca041d	-0.09864066
144	0xbd0324c6	-0.03201749
145	0xbd8af7d4	-0.06785551
146	0xbd0c71d0	-0.034288228
147	0x3da6a4d7	0.081369095
148	0xbdd480ef	-0.10376155
149	0xbd28cb7c	-0.041209683
150	0xbd20d07c	-0.039261326
151	0xbda54a6c	-0.080708355
152	0x3d843a27	0.06456404
153	0xbd9d9381	-0.0769415
154	0x3d50efd9	0.051009987
155	0xbc52f04c	-0.012874674
156	0x3cd42e65	0.025901029
157	0xbe041969	-0.12900318
158	0x3de1f969	0.11033899
159	0xbdaefb2e	-0.085440025
160	0xbda997b9	-0.08280892
161	0xbd754187	-0.059876945
162	0x3ddb922f	0.10721242
163	0xbdaac61d	-0.08338568
164	0xbd2f10cf	-0.04274064
165	0x3d9f7346	0.077856585
166	0xbc221f13	-0.009895104
167	0x3da1f0a3	0.07907226
168	0x3d7c03da	0.06152711
169	0xbdb654d4	-0.089028984
170	0xbafd5dae	-0.0019330287
171	0xbd0e14bf	-0.034687754
172	0x3d854bbc	0.06508586
173	0x3d6a7561	0.057240847
174	0xbcdd9c7f	-0.027052162
175	0x3d04626e	0.032320432
176	0x3d3641b1	0.044496242
177	0x3d35f4ab	0.044422787
178	0x3d9a2caf	0.07528054
179	0x3dae012b	0.084963165
180	0xbd882b8f	-0.06648933
181	0x3e0b6ceb	0.13615768
182	0x3ce96606	0.028491031
183	0xbcf15623	-0.029460019
184	0x3dba82ef	0.09107005
185	0xbddf9c26	-0.10918455
186	0xbd5d45db	-0.054021697
187	0xbd2e786d	-0.042595316
188	0xbca04ae7	-0.019566966
189	0xbdddc4c7	-0.10828548
190	0x3caaeda3	0.020865267
191	0xbd3f3f5e	-0.04669129

bias_hh_l0 f4 [192]
0	0xbcaeee6c	-0.021353923
1	0xbd932b8b	-0.071860395
2	0x3d22104b	0.03956632
3	0xbb1e80b9	-0.0024185611
4	0xbde2b7a6	-0.110701844
5	0xbcb072f8	-0.021539196
6	0xbd0dae3b	-0.034589987
7	0x3d6242a6	0.055239342
8	0xbd2240f9	-0.039612744
9	0x3d4a163a	0.049337603
10	0xbdc149a5	-0.09437875
11	0xbbeb06d8	-0.0071724467
12	0x3dd60c92	0.10451616
13	0xbda431fa	-0.08017345
14	0xbbdb6864	-0.006695794
15	0xbcf0168b	-0.029307624
16	0xbd9f819a	-0.077883914
17	0xbd658234	-0.056032375
18	0xbd9d3fcb	-0.07678183
19	0x3b715f97	0.0036830658
20	0xbdb36d54	-0.08761087
21	0xbd9bdb97	-0.07610243
22	0xbd9d0ad0	-0.07668078
23	0x3db03d52	0.08605446
24	0x3d3bd225	0.045854706
25	0x3de3d138	0.1112389
26	0xbdb498cd	-0.08818207
27	0x3d985a46	0.07439093
28	0xbdab0475	-0.083504595
29	0xbd4083a7	-0.047000553
30	0x3d877920	0.066149
31	0x3cb020b1	0.021499963
32	0xbde23ab3	-0.11046352
33	0xbd7d034f	-0.061770733
34	0x3dae8007	0.08520513
35	0x3c901eca	0.017592806
36	0xbd5a1f6b	-0.05325262
37	0xbdccbb1a	-0.09996624
38	0x3cafbca0	0.021452248
39	0x3d836238	0.06415218
40	0xbc3bdcda	-0.011466229
41	0x3deea823	0.11653163
42	0x3c5c71e4	0.013454888
43	0x3c560652	0.01306303
44	0x3db810fe	0.08987616
45	0x3df327cf	0.11872827
46	0x3d0b0ad8	0.03394589
47	0xbd3854c6	-0.04500272
48	0xbd76bf4a	-0.06024102
49	0xbe25b76f	-0.16183256
50	0xbe007f79	-0.12548627
51	0x3d1cd755	0.038291294
52	0x3ca0fbc8	0.019651309
53	0xbdd14b57	-0.10219448
54	0x3c3e14cd	0.011601639
55	0x3da73684	0.08164695
56	0xbe11e0fa	-0.14245978
57	0xbce06723	-0.02739293
58	0xbd99b18e	-0.07504569
59	0x3dd889d1	0.105731614
60	0x3a4fbd3a	0.00079246203
61	0xbddc32af	-0.10751855
62	0xbe0213fc	-0.12702936
63	0x3d4f0921	0.050545815
64	0xbe7dd89e	-0.24789664
65	0xbc0588ab	-0.00815026
66	0xbe4703b4	-0.19435006
67	0x3e2d29a7	0.1691042
68	0xbda1d7f7	-0.0790252
69	0xbc962ef9	-0.018332945
70	0x3d4ab96c	0.04949324
71	0xbe16f408	-0.14741528
72	0xbd9ac590	-0.07557213
73	0x3dcdc31e	0.10046981
74	0xbe181703	-0.14852528
75	0x3bc5bbc7	0.0060343477
76	0xbe8105a8	-0.25199628
77	0x3d9a438b	0.07532414
78	0xbe25c117	-0.16186939
79	0xbddca6ef	-0.107740276
80	0xbd295c5f	-0.041347858
81	0x3c83f11e	0.016106185
82	0xbeaa6e8b	-0.33287463
83	0xbeb2e73c	-0.34942043
84	0x3c130443	0.008973184
85	0xbe296d94	-0.16545707
86	0xbddfa142	-0.10919429
87	0xbd780c0e	-0.06055837
88	0xbd20d61b	-0.039266687
89	0xbb403ea9	-0.0029334223
90	0xbdc1c2d9	-0.09460992
91	0x3c9eb14d	0.019371653
92	0x3bc46270	0.00599318
93	0x3c489618	0.012242816
94	0xbdecafb0	-0.11556947
95	0x3dd94a78	0.10609907
96	0xbc242c38	-0.010020308
97	0xbbea2373	-0.007145339
98	0x3d5b525c	0.05354534
99	0x3d1e38f9	0.038628552
100	0xbd3d4457	-0.046207752
101	0xbd465aca	-0.048426427
102	0xbdf67d5a	-0.12035628
103	0xbcb6c53e	-0.02231085
104	0x3d9aba82	0.07555105
105	0xbe0c8bc1	-0.13725187
106	0xbdaec90c	-0.085344404
107	0xbe2a8323	-0.16651587
108	0xbe8cf655	-0.27531686
109	0xbe044a28	-0.12918913
110	0xbcc26434	-0.023729421
111	0xbe289679	-0.16463651
112	0xbdf07cd5	-0.1174256
113	0xbd65d8b7	-0.05611488
114	0xbda34236	-0.07971613
115	0xbdd65d25	-0.10466985
116	0xbec58bee	-0.3858332
117	0xbda3b669	-0.07993776
118	0x3db7213b	0.08941885
119	0xbd3eab05	-0.046549816
120	0xbe70625b	-0.2347502
121	0xbd14a134	-0.036286548
122	0xbe2a7364	-0.1664558
123	0xbc869272	-0.016427252
124	0x3da26c52	0.07930817
125	0xbdce1bf0	-0.100639224
126	0x3d80ca1e	0.06288551
127	0xbe17b542	-0.14815238
128	0xbbd2def0	-0.0064352676
129	0xba94ec9a	-0.0011362017
130	0xbd819bb9	-0.0632853
131	0x3b5c1344	0.003358082
132	0xbc2760f4	-0.0102159865
133	0x3d8a26f4	0.06745711
134	0x3c8f38dc	0.017483167
135	0x3d4d2ace	0.05008965
136	0x3c5c7fc7	0.013458199
137	0xbdbcb61d	-0.09214423
138	0x3dcfb074	0.10141078
139	0x3df17b97	0.11791151
140	0xbe0d07ba	-0.13772479
141	0xbc39cd9e	-0.011340527
142	0x3cf1b524	0.02950532
143	0xbd28ee25	-0.041242737
144	0x3dbf194c	0.09330997
145	0xbc80415f	-0.015656171
146	0xbd17404b	-0.03692655
147	0x3c8f9f8c	0.017532133
148	0xbd851860	-0.0649879
149	0xbcaa8641	-0.02081597
150	0xbdb62705	-0.08894161
151	0x3d87c979	0.06630225
152	0x3dad307d	0.08456514
153	0xbd23e36e	-0.040011816
154	0x3de17551	0.110087045
155	0xbdc1df1a	-0.09466381
156	0xbb8af6a2	-0.0042408267
157	0x3db67f69	0.0891102
158	0x3df391f8	0.11893076
159	0x3d00090e	0.031258635
160	0x3d251918	0.040307134
161	0x3c180f71	0.009281025
162	0xbdc711b8	-0.097201765
163	0x3d94aaca	0.07259138
164	0x3df70eeb	0.12063392
165	0xbbbd47f6	-0.0057764007
166	0xbdd726fa	-0.10505481
167	0xbd9113a2	-0.07083823
168	0xbd87e853	-0.06636109
169	0x3e12dc3d	0.14341827
170	0x3b6fb53b	0.0036576528
171	0xbd38a58d	-0.045079757
172	0x3e116806	0.14199838
173	0xba8fa701	-0.0010959805
174	0xbe15082e	-0.14553902
175	0xbd837668	-0.064190686
176	0xbd236b63	-0.039897334
177	0xbd0e2f80	-0.03471327
178	0x3d80da2d	0.06291614
179	0xbd47a9a4	-0.048745766
180	0x3d18652b	0.037205856
181	0x3d178636	0.036993228
182	0x3ccbebf5	0.024892787
183	0x3d77c1c0	0.06048751
184	0xbd7d1cdd	-0.061795104
185	0xbc8bfe9b	-0.017089179
186	0xbc496b2b	-0.012293617
187	0xbd0413d0	-0.032245457
188	0xbdbbddc6	-0.09173159
189	0x3d389e0e	0.045072608
190	0xbd258310	-0.040408194
191	0xbd39a8a7	-0.045326855

weight f4 [960, 64]
0	0xbe0a587f	-0.13510321
1	0xbd42c7b1	-0.04755372
2	0x3cdd833c	0.027040116
3	0x3de7e6f5	0.113233484
4	0x3d2abd00	0.04168415
5	0x3dce3fe9	0.10070784
6	0x3c52c918	0.012865327
7	0x3dcaaa19	0.09895725
8	0x3cd4fe73	0.026000237
9	0x3d999124	0.074983865
10	0xb9266316	-0.00015867906
11	0x3de4793f	0.11155938
12	0xbbeb42d2	-0.0071795965
13	0xbd154293	-0.036440443
14	0x3d1ea5c7	0.038732316
15	0xbdebd174	-0.115145594
16	0x3e164b81	0.1467724
17	0x3db5ce77	0.08877271
18	0xbe201cff	-0.15636061
19	0x3e16fade	0.14744136
20	0xbd5c350a	-0.05376152
21	0x3cbd488d	0.023105884
22	0xbd2070a3	-0.03916992
23	0x3d354a7d	0.04426049
24	0x3d8cc3c0	0.06873274
25	0x3d9bbc3d	0.07604263
26	0x3df30854	0.11866823
27	0xbd31e99b	-0.043435674
28	0x3d9a5747	0.07536178
29	0x3b9c4187	0.0047685537
30	0xbd01cfb2	-0.031692214
31	0x3dc5b99e	0.09654544
32	0xbd38cc36	-0.045116626
33	0xbcca952d	-0.024729336
34	0xbe030906	-0.12796411
35	0xbe2297d3	-0.15878229
36	0x3ddf9c81	0.109185226
37	0x3db60482	0.088875785
38	0x3c965f63	0.01835603
39	0xbcd03f27	-0.025420738
40	0xbe3028bf	-0.17203043
41	0x3d8761c9	0.06610448
42	0x3d333bd5	0.043758232
43	0xbde6eda0	-0.11275792
44	0xbd92d8a1	-0.07170225
45	0x3d8e2371	0.06940354
46	0x3cb838c7	0.022488011
47	0x3d3b3c32	0.045711704
48	0x3dad9b76	0.084769174
49	0xbde5d298	-0.11221808
50	0x3cb96078	0.022629008
51	0x3c1643a6	0.009171402
52	0xbd5361ad	-0.051606823
53	0x3e00924f	0.12555812
54	0x3c936d28	0.017996386
55	0x3db455e2	0.08805443
56	0x3d9c55b2	0.076335326
57	0xbe2f9b45	-0.17149074
58	0xbe171359	-0.14753474
59	0xbc575cd7	-0.013144693
60	0x3c927648	0.017878667
61	0x3c956e19	0.018240975
62	0x3c653c92	0.013991492
63	0xbd82245b	-0.063545905
64	0x3bc1dd44	0.0059162695
65	0x3cf42868	0.029804423
66	0xbce15405	-0.027505884
67	0x3c765b9d	0.015036491
68	0xbdef5123	-0.116853975
69	0x3c16d382	0.009205701
70	0x39738e99	0.00023227408
71	0xbceb677d	-0.02873587
72	0xbdde3ca8	-0.10851413
73	0xbd05dac1	-0.032679323
74	0xbd34fb62	-0.04418505
75	0xbce67820	-0.028133452
76	0xbe2a0df8	-0.16606891
77	0x3d778f67	0.060439494
78	0x3e50b855	0.20382817
79	0x3de137b7	0.10996955
80	0xbdd463c1	-0.10370589
81	0x3d82773e	0.063704
82	0xbe3affa5	-0.18261583
83	0x3d8fdbef	0.07024371
84	0x3c7b5050	0.015338972
85	0x3da3e754	0.08003107
86	0x3d919954	0.07109323
87	0xbddbb723	-0.1072829
88	0xbd800d47	-0.062525325
89	0x3d793790	0.060844004
90	0x3d89d965	0.06730918
91	0x3bb1af71	0.0054225256
92	0xbd843074	-0.06454554
93	0x3a3fa794	0.0007311043
94	0x3d423e3f	0.047422644
95	0xbe02a255	-0.12757237
96	0xbccb767f	-0.024836777
97	0xbe1be946	-0.15225706
98	0x3d67d8e4	0.056603327
99	0x3db262ba	0.08710237
100	0x3dc12868	0.09431535
101	0x3e0f0f4e	0.13970682
102	0x3e03f2e9	0.12885632
103	0x3ccfb3d7	0.025354309
104	0xbb419065	-0.0029535529
105	0x3ca5918e	0.020211007
106	0xbdc8d84f	-0.098068826
107	0xbe309266	-0.17243347
108	0x3d8c9850	0.06864989
109	0x3d95b1ca	0.07309301
110	0xbcf7d46e	-0.030252662
111	0x3c69beaf	0.014266654
112	0x3be3b64f	0.006949223
113	0x3d840517	0.06446283
114	0xbd84ae5a	-0.064785674
115	0xbe5c8f26	-0.21538982
116	0xbd0fbbd9	-0.035091255
117	0x3dc2bdc5	0.09508852
118	0x3de61e99	0.11236305
119	0xbdbcaeb1	-0.09213007
120	0x3e15bf3d	0.14623733
121	0xbd2e2275	-0.04251333
122	0xbd873f5d	-0.066038825
123	0x3e526be2	0.20548967
124	0x3e2d85db	0.16945593
125	0xbd3dc19e	-0.046327226
126	0xbd2fb5cd	-0.042897988
127	0xbddc4a6c	-0.10756382
128	0x3df715ec	0.12064728
129	0xbda26e1c	-0.07931158
130	0x3d07e6b4	0.033179
131	0x3d9cf0ed	0.076631404
132	0x3e17d93d	0.14828964
133	0xbda3a200	-0.079898834
134	0x3cb8e052	0.022567902
135	0xbdc87197	-0.097872905
136	0xbd58c976	-0.052926503
137	0x3ddcb06b	0.107758366
138	0xbdb9c16d	-0.09070096
139	0xbafd8182	-0.0019340964
140	0x3e52e1ad	0.20593901
141	0xbd85e178	-0.065371454
142	0x3d16d57f	0.0368247
143	0x3d97558e	0.07389365
144	0x3e66e60e	0.22548696
145	0xbc4c82be	-0.012482343
146	0x3deedfbb	0.11663767
147	0xbdd764fc	-0.10517308
148	0xbde5b6ce	-0.11216508
149	0x3bc37695	0.005965064
150	0xbda5643d	-0.080757596
151	0xbe001d48	-0.1251117
152	0xbd92102f	-0.07131993
153	0xbd3b5ada	-0.04574094
154	0xbe287649	-0.16451372
155	0x3e13d180	0.14435387
156	0x3e04420b	0.12915818
157	0x3d951ff5	0.07281486
158	0xbe261b33	-0.16221313
159	0x3e3f599f	0.18686531
160	0xbdbbe3fa	-0.091743425
161	0x3da16915	0.07881371
162	0x3d58979b	0.052878957
163	0x3d138415	0.036014635
164	0xbd8fa212	-0.07013334
165	0xbd32cb3f	-0.04365086
166	0xbd5d6e65	-0.05406036
167	0xbd81422e	-0.06311451
168	0xbb3d1cd8	-0.0028856304
169	0x3982135f	0.00024809965
170	0xbd2292b6	-0.039690696
171	0x3e25b6f5	0.16183074
172	0xbd55ba4b	-0.052179616
173	0x3e44bd34	0.192128
174	0x3e05405c	0.13012832
175	0x3e44e7d9	0.19229068
176	0xbe3c80b8	-0.18408477
177	0x3e090897	0.13382183
178	0x3e0e3cee	0.1389043
179	0xbd6642a0	-0.056215882
180	0x3da75587	0.0817061
181	0x3ccb0edc	0.024787359
182	0xbdf7f9e9	-0.121082135
183	0x3de62428	0.11237365
184	0x3b967d37	0.0045925635
185	0x3d4c815c	0.049928054
186	0x3be6d16d	0.0070440085
187	0x3d6f386b	0.058403414
188	0x3d3ef14d	0.04661684
189	0x3cebd51b	0.02878814
190	0x3e013783	0.12618832
191	0x3bb33b4e	0.005469716
192	0x3dc51b8b	0.09624394
193	0x3be30ed3	0.0069292574
194	0x3c085ccc	0.008322906
195	0x3d9d9be1	0.07695747
196	0x3d73f54c	0.059560105
197	0x3d46ab8a	0.048503436
198	0x3d4e009f	0.05029356
199	0x3d510b92	0.051036425
200	0xbda2bcff	-0.079462044
201	0xbc91fd78	-0.017821059
202	0x3dbd811b	0.092531405
203	0x3d118cb7	0.035534587
204	0x3d2f1c42	0.042751558
205	0xbda8e083	-0.08245947
206	0x3d8c2e01	0.06844712
207	0xbc097b0b	-0.008391152
208	0x3c02ef8a	0.007991681
209	0xbddea8db	-0.108720504
210	0x3d8d0cf1	0.06887234
211	0xbd8201ac	-0.06347975
212	0xbdc47706	-0.095930144
213	0x3db559c4	0.08855012
214	0xbc950b3b	-0.018193832
215	0x3d4be2a5	0.049776692
216	0x3cf46403	0.029832846
217	0xbd8160df	-0.06317305
218	0x3dd3bc1f	0.103386156
219	0xbdb3deea	-0.08782752
220	0xbe1bc06f	-0.15210126
221	0x3c3bef03	0.011470559
222	0xbdd74381	-0.10510922
223	0x3db39435	0.087685026
224	0x3d1a4c51	0.037670437
225	0x3d789ad4	0.06069453
226	0x3c85a4b0	0.01631388
227	0xbdd3a3af	-0.103339545
228	0xbcea0ad1	-0.02856961
229	0xbd3c3fc9	-0.045959268
230	0x3c86cd34	0.01645527
231	0x3e311f01	0.17296983
232	0xbe08433d	-0.133069
233	0xbd51b9d8	-0.051202625
234	0xbc76bf22	-0.015060218
235	0xbe25d099	-0.16192855
236	0x3e1dd9dc	0.15415138
237	0x3b69757e	0.003562301
238	0x3abefdd4	0.0014571496
239	0x3c843cea	0.016142327
240	0x3d854b23	0.06508472
241	0x3d05c173	0.03265519
242	0xbd3e5f34	-0.04647751
243	0xbdcaab8a	-0.09896
244	0x3da7c15b	0.081911765
245	0xbd75a00b	-0.059967082
246	0x3d37894e	0.04480868
247	0xbcc2a7a4	-0.023761578
248	0xbc2afcfe	-0.010436295
249	0xbd801406	-0.06253819
250	0xbe2ac7a5	-0.16677721
251	0x3d804ffe	0.06265257
252	0x3dc6ebc1	0.09712935
253	0x3b83e91f	0.004025593
254	0xbceeba55	-0.029141584
255	0xbdbde246	-0.09271674

bias f4 [960]
0	0x3e01a630	0.12661052
1	0x3c8b7ac1	0.017026307
2	0xbd65f01f	-0.0561372
3	0x3dfca848	0.123367846
4	0x3dc9bb30	0.09850156
5	0xbd20ab0d	-0.039225627
6	0xbde329ca	-0.11091955
7	0x3d095f49	0.033538137
8	0x3d30358d	0.04301982
9	0x3d397aed	0.045283247
10	0xbd97860a	-0.07398613
11	0x3e041dcf	0.12901996
12	0x3b14de5c	0.0022715544
13	0x3e180d75	0.14848883
14	0x3dfb8968	0.122820675
15	0x3e2ece14	0.170708
16	0xbdf50e74	-0.11965647
17	0x3e5a27e5	0.21304281
18	0x3c90d929	0.017681675
19	0xbe184136	-0.14868626
20	0xbc80d06d	-0.015724385
21	0xbbb362c2	-0.0054744193
22	0x3e309fd6	0.17248473
23	0xbdbf2989	-0.09334094
24	0x3dd21397	0.10257643
25	0x3e31458b	0.17311685
26	0x3d63005f	0.055420276
27	0x3c2da7b7	0.010599068
28	0x3d500de1	0.050794486
29	0x3e35760b	0.17720811
30	0x3de1dc74	0.11028376
31	0x3ca982e4	0.020692296
32	0x3cbff3ff	0.023431776
33	0xbd601127	-0.054703858
34	0xbd94c467	-0.07264023
35	0x3d17f676	0.037100278
36	0x3e0c75e1	0.13716842
37	0x3c81e266	0.015855026
38	0x3c589c55	0.013220866
39	0x3e4e6ae4	0.20157963
40	0xbda05117	-0.07827967
41	0xbd859894	-0.065232426
42	0xbd07df42	-0.0331719
43	0xbd54ad1e	-0.05192291
44	0x3c8ff32a	0.017572004
45	0xbe254a10	-0.16141534
46	0x3d7f1d9d	0.0622841
47	0xbd6c0ec3	-0.057631265
48	0x3ded9dc0	0.11602354
49	0xbe0c5e95	-0.13707955
50	0xbb408c20	-0.0029380396
51	0x3deb6415	0.114936985
52	0x3d66964c	0.056295678
53	0x3dc73e84	0.09728721
54	0xbdbd3fc8	-0.09240681
55	0x3c8d964c	0.017283581
56	0xbd9b44cf	-0.075814836
57	0xbdfc458f	-0.12317955
58	0x3e037e2b	0.12841098
59	0xbde6e789	-0.112746306
60	0x3d7d9d82	0.06191779
61	0x3e4d533c	0.20051283
62	0xbd890f15	-0.0669233
63	0x3df34395	0.118781246
64	0xbdcbb33b	-0.09946295
65	0xbde8e355	-0.11371485
66	0x3e20785b	0.15670912
67	0xbdf601c7	-0.12012058
68	0xbce0698f	-0.027394084
69	0x3da43119	0.08017177
70	0x3e02dc19	0.12779273
71	0x3d48e1f9	0.04904363
72	0xbc80b7b1	-0.01571259
73	0x3d6d8ea5	0.057997365
74	0x3dab60a5	0.08368043
75	0xbcbac908	-0.022800937
76	0xbe0e9f66	-0.13927993
77	0xbe02d06e	-0.12774822
78	0xbdbde5d6	-0.09272353
79	0xbd49022d	-0.04907434
80	0x3c77222e	0.015083833
81	0xbd4f2d51	-0.050580326
82	0xbdcd3f5d	-0.10021851
83	0xbcdb3042	-0.02675641
84	0x3dcddfbe	0.10052441
85	0xbdc50ab3	-0.09621181
86	0xbdfccad4	-0.12343374
87	0x3cf79163	0.030220693
88	0xbd902e02	-0.07040025
89	0x3c5bd12c	0.01341657
90	0x3e0b3beb	0.13597076
91	0x3d69e365	0.057101626
92	0x3dd3fbb9	0.10350747
93	0xbc734612	-0.014848249
94	0x3ddc9d21	0.107721575
95	0x3db63ee9	0.08898718
96	0xbda74120	-0.081667185
97	0x3d1c66e9	0.03818408
98	0xbd89753e	-0.06711815
99	0xbcf5bc8d	-0.029997135
100	0xbe248445	-0.16066082
101	0xbbe926ac	-0.0071152057
102	0x3d010d2a	0.031506695
103	0xbda90d12	-0.08254446
104	0xbd47dfe6	-0.04879751
105	0xbb83eb89	-0.0040258807
106	0x3dd9c258	0.10632771
107	0xbdbbb2cc	-0.09164962
108	0x3cbdb21e	0.023156222
109	0xbdb5983f	-0.08866929
110	0x3dcdca7d	0.10048387
111	0x3d9faa39	0.07796139
112	0x3cb63f53	0.022246992
113	0x3e100b4c	0.1406681
114	0xbde685e4	-0.11256006
115	0x3d7b573d	0.061362494
116	0xbdcd4eb0	-0.10024774
117	0x3d8bb4ca	0.06821592
118	0xbdc8c44f	-0.09803068
119	0x3c3760b9	0.011192494
120	0x39a6f218	0.0003184236
121	0xbda6d006	-0.08145146
122	0x3bf2d40e	0.007410533
123	0x3ddefcb5	0.10888044
124	0xbd2b29d3	-0.041787934
125	0xbded14ee	-0.11576258
126	0xbcf2de2b	-0.029646954
127	0xbe141d5d	-0.14464326
128	0xbb067e67	-0.002052212
129	0xbda7606d	-0.08172689
130	0x3bd0c596	0.0063712103
131	0xbd2c95b9	-0.042134974
132	0xbdd85db7	-0.1056475
133	0xbda405fb	-0.08008953
134	0x3ca6e9aa	0.020375092
135	0xbe05a1ef	-0.13050054
136	0xbdead4f7	-0.11466401
137	0xbe023a06	-0.12717447
138	0x3da40092	0.08007921
139	0x3cbe04fd	0.023195738
140	0xbdf72564	-0.120676786
141	0xbd156d04	-0.03648092
142	0xbcd14b95	-0.025548736
143	0x3d87d54e	0.066324815
144	0x3d6b10af	0.057388958
145	0x3d9ad0a8	0.07559329
146	0x3e00062c	0.12502354
147	0xbdbca6dc	-0.092115134
148	0x3cbd1e03	0.0230856
149	0xbcbedf98	-0.023299977
150	0x3bc439d1	0.0059883376
151	0x3c666e45	0.014064376
152	0xbd9e2710	-0.07722294
153	0xbd9ac5d6	-0.075572655
154	0x3da3b96d	0.079943515
155	0xbc049e5e	-0.008094398
156	0x3db7e2ae	0.089787826
157	0x3d98c3d6	0.07459228
158	0xbac1e808	-0.0014793882
159	0xbdeb4101	-0.11487008
160	0xbd1fed8d	-0.039044905
161	0xbaa14ce1	-0.0012306237
162	0x3d832fe9	0.064056225
163	0xbde1c968	-0.11024743
164	0x3ddf93a2	0.109168306
165	0x3be92585	0.0071150684
166	0xbd837e06	-0.064205214
167	0x3dcdfb8e	0.10057746
168	0x3db34c00	0.0875473
169	0xbdf64468	-0.12024766
170	0xbe20c61b	-0.15700571
171	0xbd2c43aa	-0.042056717
172	0xbdf69386	-0.120398566
173	0xbc003814	-0.00782587
174	0x3cedada9	0.029013472
175	0xbdb0e756	-0.08637874
176	0xbd4c82a0	-0.04992926
177	0xbd897a2c	-0.067127556
178	0x3c74ee3e	0.0149493795
179	0x3de59ad1	0.112111695
180	0xbd96287d	-0.07331941
181	0x3dbeba1c	0.09312841
182	0xbd94cb00	-0.07265282
183	0xbd729dd7	-0.05923256
184	0xbdfd77dd	-0.12376378
185	0x3d830569	0.06397516
186	0x3cf39064	0.029731937
187	0xbe0017b6	-0.12509045
188	0xbc859708	-0.016307369
189	0x3e0478d0	0.12936711
190	0xbdbac113	-0.09118857
191	0x3d9fc13d	0.07800529
192	0xbdb3eb78	-0.087851465
193	0x3d4038ef	0.046929296
194	0x3d748d97	0.059705343
195	0x3d849a6c	0.06474766
196	0x3d895c61	0.06707073
197	0x3dacdc26	0.084404275
198	0xbd84ac72	-0.06478204
199	0xbe2cc3d6	-0.1687158
200	0x3d74bbe9	0.059749518
201	0x3de9efe3	0.11422708
202	0xbd986849	-0.07441766
203	0x3d0528df	0.03250968
204	0x3c98b3a8	0.018640354
205	0x3ddc88c8	0.107682765
206	0x3dcfba32	0.10142936
207	0x3d7122db	0.05887113
208	0xbdd56307	-0.104192786
209	0xbde1490f	-0.11000263
210	0xbe15bf08	-0.14623654
211	0xbe433c2e	-0.19065925
212	0x3cbf2af5	0.023335913
213	0xbdc5993f	-0.0964837
214	0x3d0040fd	0.031311978
215	0xbdef3dcc	-0.11681709
216	0x3d9a15ef	0.07523715
217	0xbba68dd3	-0.0050828247
218	0x3b256539	0.0025237335
219	0x3c0ba928	0.008524217
220	0xbc0d43fd	-0.008622167
221	0xbe2054bf	-0.15657328
222	0x3c83ebdc	0.016103677
223	0xbcaa022b	-0.020752987
224	0x3dbaac1d	0.09114859
225	0x3b35965f	0.0027708036
226	0xbdbbfad7	-0.09178703
227	0xbdbc16b8	-0.09184021
228	0xbdff77b1	-0.12474001
229	0xbcdce7ed	-0.02696606
230	0x3db847ad	0.08998046
231	0xbde5bb81	-0.11217404
232	0xbe5865df	-0.2113261
233	0xbde12e77	-0.109951906
234	0x3d10b61e	0.03532993
235	0xbc3e7c46	-0.011626309
236	0xbce5dd83	-0.028059727
237	0x3dd9d4d2	0.106362954
238	0xbe244ed7	-0.160457
239	0x3d1b9bb1	0.037990276
240	0xbdbee2c3	-0.09320595
241	0xbd9c5cee	-0.076349124
242	0xbde97808	-0.11399847
243	0xbe1c720d	-0.15277882
244	0x3d08beda	0.033385135
245	0xbe47fa87	-0.19529162
246	0x3da69928	0.08134681
247	0xbd006270	-0.031343877
248	0x3ca84a15	0.020543138
249	0xbc404cf4	-0.011737097
250	0x3da6db15	0.08147255
251	0x3dd0159e	0.10160373
252	0x3e05a2e0	0.13050413
253	0x3d741695	0.05959185
254	0x3da5b0e1	0.080903776
255	0x3d0435bb	0.032277804
