models/hawkes_ind.pth (torch, 181259 bytes, 10 tensors)

context_init f4 [64]
0	0x3d62de05	0.055387516
1	0x3e257249	0.16156878
2	0x3c4afda9	0.012389579
3	0xbe232925	-0.15933664
4	0xbe3cc548	-0.18434632
5	0x3e6399ea	0.22226682
6	0x3e35aeb2	0.17742422
7	0x3eb26bec	0.34847963
8	0xbe2dfd27	-0.16991101
9	0x3ec4b159	0.38416556
10	0xbe3b24ff	-0.18275832
11	0x3ed6d393	0.41958293
12	0x3e5c70d7	0.2152742
13	0x3e5a8eea	0.2134358
14	0xbdd04a4d	-0.10170422
15	0x3d942e6f	0.07235419
16	0x3d94dfbb	0.07269236
17	0xbda9a782	-0.08283903
18	0xbec055cb	-0.37565455
19	0x3eb75c96	0.35812825
20	0x3e4023b4	0.1876362
21	0x3e6992b4	0.22809869
22	0x3ec0d68e	0.37663692
23	0x3e263be6	0.16233787
24	0xbe268251	-0.1626065
25	0x3ed3d217	0.41371223
26	0xbe5ae7e2	-0.21377519
27	0x3e4fe05d	0.20300432
28	0xbd1b7a33	-0.037958335
29	0xbe796c10	-0.24357629
30	0x3eb3eadc	0.3514012
31	0x3da21b45	0.079153575
32	0xbe612696	-0.21987376
33	0x3e80d231	0.25160363
34	0xbe387eff	-0.18017195
35	0x3eb58813	0.3545538
36	0xbebe51ae	-0.37171692
37	0xbe31d7e1	-0.17367508
38	0xbd10f137	-0.03538629
39	0xbe3a9c7e	-0.1822376
40	0xbe906bb0	-0.2820716
41	0xbe50874f	-0.20364116
42	0x3eaacc63	0.3335906
43	0xbe470b16	-0.19437823
44	0xbe47c19b	-0.19507448
45	0x3e658d9b	0.224173
46	0x3e3ce005	0.18444832
47	0xbe9da439	-0.30789354
48	0xbe35b49b	-0.17744677
49	0xbe16eef4	-0.14739591
50	0x3ecd7d93	0.40134868
51	0x3e902d9f	0.28159806
52	0xbe027647	-0.12740432
53	0xbe95e8e3	-0.2927924
54	0x3e3af7d0	0.18258595
55	0xbe00733e	-0.12543961
56	0xbe878049	-0.2646506
57	0x3ea65927	0.32489893
58	0xbe608f68	-0.21929705
59	0x3e17b947	0.14816771
60	0xbe2caa71	-0.16861893
61	0x3e6f13b6	0.23347363
62	0x3e505bd9	0.20347537
63	0xbec136d9	-0.37737158

weight f4 [2, 32]
0	0xbf6e604b	-0.9311568
1	0xbedf69e6	-0.43635482
2	0xc028dfd5	-2.6386616
3	0x3e0c7b91	0.13719012
4	0xbdd43771	-0.10362137
5	0xbf0e6fe7	-0.556395
6	0xbf1e8a8b	-0.6193015
7	0xbeaf3ed7	-0.3422763
8	0xbf893cb5	-1.0721651
9	0xbea6abcf	-0.32552955
10	0xbfd38a6b	-1.6526617
11	0x401064e5	2.256158
12	0x3e91edc7	0.28501722
13	0xbe484810	-0.1955874
14	0x3fa5248c	1.2901778
15	0x3f96a25b	1.1768297
16	0xbe0cb6a3	-0.13741545
17	0x3f9a9ade	1.2078512
18	0x3fb5ec64	1.4212766
19	0x3f801847	1.0007409
20	0xbf00eab7	-0.50358146
21	0xbfb327bd	-1.3996502
22	0xbf389325	-0.72099525
23	0xbfa69ef9	-1.3017265
24	0x3d892220	0.06695962
25	0x3b4e08c4	0.003143833
26	0x3ff40a0a	1.9065564
27	0x3f2a8a1d	0.66616994
28	0xbd974c83	-0.0738764
29	0xbf5a14d0	-0.8518801
30	0x3fa8f5ec	1.3200049
31	0xbe9882b7	-0.29787228
32	0xbf295320	-0.66142464
33	0xbebed5c5	-0.37272468
34	0xbf795897	-0.974008
35	0xbf543a2c	-0.82901263
36	0xbf3b2734	-0.73106694
37	0xbd8ba0b9	-0.06817765
38	0x3f06e8c6	0.52698934
39	0x3fc520f7	1.5400685
40	0xbcd32291	-0.025773318
41	0x3f0998a5	0.5374854
42	0x3fd431df	1.657772
43	0x3f33470f	0.700303
44	0xbe69a2f5	-0.2281607
45	0x3f84bdf8	1.0370474
46	0xbfb9f834	-1.452887
47	0xbf40d94c	-0.7533157
48	0xbe60fb91	-0.21970965
49	0x3ed52fa7	0.41637918
50	0x3ee97f28	0.45604825
51	0xbe0751b4	-0.13214761
52	0x3f661bd5	0.8988622
53	0xbf90587a	-1.1277001
54	0x3dcd23e4	0.10016611
55	0x3ef23bb9	0.4731119
56	0xbf17af96	-0.592523
57	0xbea3e277	-0.32008716
58	0xbf06d8cf	-0.52674574
59	0x3f6b25e4	0.9185469
60	0x3ea28f96	0.31750172
61	0x3df27d6b	0.11840328
62	0x3f01fa88	0.50772905
63	0xbf905995	-1.1277338

weight f4 [2, 64]
0	0x3df45442	0.119301334
1	0x3dbcde1f	0.09222054
2	0xbc55f2b4	-0.013058353
3	0xbd0a91cc	-0.03383045
4	0xbd4d3293	-0.05009706
5	0xbd29ec6c	-0.041485235
6	0x3d6a49a6	0.057199143
7	0x3d4ee5b9	0.05051205
8	0xbdd8f44c	-0.10593471
9	0xbcfa2e4e	-0.030539658
10	0xbd97d33c	-0.07413337
11	0xbcd1971f	-0.025584755
12	0x3b926196	0.0044671996
13	0xbca4a740	-0.020099282
14	0xbb6715e1	-0.0035260844
15	0x3db4e3c5	0.08832506
16	0x3dc4bb81	0.09606076
17	0xbd86a2b4	-0.06574002
18	0x3d7b94c3	0.061421167
19	0xbda2e619	-0.07954044
20	0x3db5d5bd	0.08878658
21	0x3db975bd	0.0905566
22	0x3da96a66	0.08272247
23	0x3dccb138	0.09994739
24	0x3c34ed0a	0.011042843
25	0x3c0d62e0	0.008629531
26	0xbdba026e	-0.09082495
27	0x3d8d2c9d	0.06893275
28	0xbd3392f5	-0.04384132
29	0xbcf4d99c	-0.02988892
30	0xbdad906a	-0.084748104
31	0x3dad8653	0.08472886
32	0xbd9c8e2b	-0.07644304
33	0x3db7852c	0.089609474
34	0xbe01f053	-0.12689333
35	0x3db4f5a7	0.08835917
36	0x3d9eefaa	0.07760556
37	0xbdc7fdff	-0.09765243
38	0xbdbf7a3b	-0.093494855
39	0xbdbeb064	-0.093109876
40	0x3d891220	0.0669291
41	0xbdb4ac64	-0.088219434
42	0x3dbc6ff4	0.09201041
43	0xbda51c2d	-0.08062015
44	0xbe00887b	-0.12552063
45	0xbdde76ad	-0.10862479
46	0x3dd075f0	0.10178745
47	0x3cc66b16	0.024220984
48	0xbddafec0	-0.10693121
49	0x3cb42771	0.021991463
50	0xbdc9956a	-0.098429516
51	0x3d1d0d8f	0.03834301
52	0xbd8ef872	-0.06980981
53	0xbe04f6fe	-0.12984845
54	0x3d048c28	0.032360226
55	0xbd9be39f	-0.07611775
56	0x3c9eb225	0.019372055
57	0x3db3737f	0.087622635
58	0xbb9a10b8	-0.0047017
59	0x3ddeba3d	0.10875366
60	0x3d704a61	0.058664683
61	0x3cefc1a6	0.029267143
62	0x3dcfefcf	0.10153162
63	0x3dca639e	0.09882282
64	0xbdc95b96	-0.09831922
65	0xbd66b08b	-0.05632071
66	0xbd1b2e28	-0.037885815
67	0x3d07b19a	0.03312836
68	0x3df6d94b	0.12053164
69	0xbd4e5f51	-0.05038387
70	0xbdc67dd3	-0.09691968
71	0x3d17f744	0.037101045
72	0x3cc549f1	0.02408311
73	0xbccfa588	-0.025347486
74	0xbcd5a165	-0.026077935
75	0x3d59129a	0.052996255
76	0xbda7bebe	-0.08190678
77	0xbd8b9332	-0.06815185
78	0x3dd4389c	0.1036236
79	0xbdd91e33	-0.10601463
80	0xbd773d13	-0.06036098
81	0x3dbc91d2	0.092075005
82	0x3c69e01c	0.014274623
83	0xbddb94fb	-0.10721775
84	0xbd81564c	-0.06315288
85	0xb8b33670	-8.545525e-05
86	0x3dd71d87	0.10503679
87	0xbd4fccb9	-0.050732348
88	0x3d298fbb	0.041396838
89	0x3c7265bc	0.014794763
90	0x3d8133d5	0.06308714
91	0xbcc5cc84	-0.024145372
92	0x3d98cf51	0.074614175
93	0x3da9ba07	0.08287435
94	0xbdd3a077	-0.103333406
95	0x3c9ac717	0.018893762
96	0xbcafb31a	-0.021447707
97	0x3c592583	0.013253572
98	0x3d1f7877	0.038933244
99	0x3db0d238	0.08633846
100	0x3d5489c5	0.0518892
101	0x3cf8d3ad	0.030374372
102	0x3d839cb1	0.06426371
103	0x3d000801	0.031257633
104	0x3dcba4bc	0.0994353
105	0x3dd861c9	0.10565526
106	0x3d214f16	0.039382063
107	0x3c7aed36	0.015315345
108	0xbcdf89ab	-0.027287325
109	0xbd5fc61a	-0.054632284
110	0xbdaba8ca	-0.08381803
111	0x3da10929	0.07863075
112	0x3cb5e8ca	0.022205729
113	0x3d6b2992	0.05741269
114	0xbdea0b07	-0.114278845
115	0xbdc3120d	-0.09524927
116	0x3d490847	0.04908016
117	0xbdbc4367	-0.091925435
118	0xbd8f982b	-0.070114456
119	0x3d889b35	0.066702284
120	0x3d8225a6	0.06354837
121	0x3c818779	0.015811669
122	0x3da09795	0.07841412
123	0xbdc925b3	-0.09821644
124	0x3db9a5a8	0.090647995
125	0xbcdb1c75	-0.026746968
126	0xbd4d2ba1	-0.050090436
127	0x3ddf853d	0.10914085

bias f4 [2]
0	0xbdc21f91	-0.09478677
1	0x3d301371	0.04298729

weight_ih_l0 f4 [192, 33]
0	0xbee447f9	-0.4458616
1	0xbdafe279	-0.08588118
2	0xbd83144f	-0.06400358
3	0x3dacd8d7	0.084397964
4	0x3d5a2c84	0.05326511
5	0x3d802f77	0.06259053
6	0xbd78cf6a	-0.06074468
7	0x3df00b4c	0.11720905
8	0xbd025953	-0.031823467
9	0x3d0dfb92	0.034663744
10	0x3ce9b8dd	0.028530532
11	0xbd34b5a9	-0.044118557
12	0x3dc10176	0.09424107
13	0xbc77a97a	-0.01511609
14	0x3d43e58a	0.047826327
15	0x3cb97b00	0.022641659
16	0xbd40f602	-0.04710961
17	0xbb249f6a	-0.0025119432
18	0x3d8e605b	0.06951972
19	0xbd8ea9d7	-0.06965988
20	0xbddd50af	-0.10806405
21	0x3de44577	0.11146062
22	0x3cd280ab	0.02569612
23	0x3dd03231	0.10165823
24	0xbdd7c140	-0.105349064
25	0x3b7ccb10	0.0038573183
26	0xbdc2ab17	-0.09505289
27	0x3c9addae	0.018904533
28	0xbd0a5e06	-0.033781074
29	0x3d69e2e2	0.057101138
30	0x3dd39361	0.10330845
31	0xbdbcb815	-0.09214798
32	0xbce7d278	-0.028298602
33	0xbda6c15f	-0.08142351
34	0xbda80e00	-0.08205795
35	0xbc685b42	-0.014181914
36	0x3d28b261	0.04118574
37	0xbe34ef73	-0.17669468
38	0x3d47d76f	0.048789438
39	0x3dcc52e9	0.09976751
40	0x3e059963	0.13046794
41	0x3ded2400	0.11579132
42	0x3d8b204d	0.0679327
43	0x3dda5ed3	0.106626175
44	0x3dc2e2d2	0.09515919
45	0x3cfc678a	0.03081109
46	0xbe7721c3	-0.24133973
47	0x3d0e78cb	0.034783166
48	0xbe397eed	-0.18114825
49	0xbe359ea0	-0.17736292
50	0xbdcb905e	-0.09939645
51	0xbc35d67a	-0.0110984985
52	0xbe01d50b	-0.12678926
53	0xbe481263	-0.19538264
54	0x3d67837a	0.05652187
55	0x3d78b3f1	0.06071848
56	0x3e2971a5	0.16547258
57	0x3d6f7c4a	0.05846814
58	0xbdf11d9f	-0.11773228
59	0xbe2669c7	-0.16251288
60	0xbd1e734c	-0.038684174
61	0xbc5be10e	-0.013420356
62	0xbcbfd4eb	-0.023416957
63	0x3d32c3c1	0.043643717
64	0xbdea70d2	-0.114473
65	0xbb9d0b00	-0.004792571
66	0x3edbc3ef	0.42922923
67	0xbdbf8ba4	-0.09352806
68	0x3d8c4827	0.068496995
69	0x3d4a8304	0.049441352
70	0xbe2e8097	-0.1704124
71	0xbda60e25	-0.081081666
72	0x3cc06d7c	0.023489706
73	0xbd10f418	-0.035389036
74	0xbbcb7edc	-0.006210191
75	0xbe06ce7c	-0.13164705
76	0x3c8e1620	0.017344534
77	0xbd8c5cc5	-0.06853632
78	0xbd9a299f	-0.0752747
79	0xbdac6ce7	-0.08419209
80	0xbd34076c	-0.04395239
81	0xbda26975	-0.079302706
82	0xbc2428bb	-0.0100194765
83	0xbe057649	-0.13033403
84	0x3db958d3	0.09050145
85	0x3d7a6cbb	0.06113885
86	0x3e145f2f	0.14489435
87	0x3d28a652	0.04117424
88	0xbb89f0fe	-0.0042096367
89	0xba04519c	-0.0005047561
90	0x3cb96e3e	0.022635575
91	0xbe26af97	-0.1627792
92	0x3d7275e2	0.059194453
93	0x3db52fb7	0.088469915
94	0x3d499597	0.049214926
95	0x3d3926a8	0.04520288
96	0xbe137f8d	-0.14404126
97	0x3d2cb7a3	0.042167317
98	0xbe0924a7	-0.13392888
99	0x3f014c2b	0.5050685
100	0xbc98f4c3	-0.018671399
101	0xbdbc633e	-0.091986164
102	0xbd83a327	-0.06427603
103	0xbd98a6ad	-0.07453666
104	0xbde3810c	-0.11108598
105	0xbd43fe52	-0.04784996
106	0x3dbcb2fa	0.092138246
107	0xbdaa9007	-0.08328252
108	0xbda6de1f	-0.08147835
109	0xbda813da	-0.082069114
110	0x3d8ceb42	0.06880809
111	0xbb263b84	-0.0025365064
112	0xbd3c06f4	-0.04590507
113	0x3c4fe761	0.012689442
114	0x3ded0311	0.115728505
115	0x3dd53a3d	0.10411499
116	0xbddf5dbb	-0.109065495
117	0xbdbfd163	-0.09366109
118	0x3b538c2d	0.0032279596
119	0xbd0fa2f5	-0.035067517
120	0x3da0d8db	0.07853862
121	0xbd17e553	-0.037083935
122	0x3d53899b	0.051644903
123	0x3befe99a	0.0073215486
124	0x3c80160c	0.015635513
125	0xbd9018ab	-0.07035955
126	0x3c6ebf18	0.0145719275
127	0xbd9caa9f	-0.07649731
128	0x3d83a2b9	0.06427521
129	0xbd94395f	-0.07237505
130	0xbdaf5873	-0.08561792
131	0x3daea75c	0.08528015
132	0x3d9a226a	0.07526095
133	0xbcf4b800	-0.029872894
134	0xbd0fda68	-0.035120398
135	0xbd1c2b2e	-0.038127117
136	0x3d25002c	0.040283367
137	0xbda31118	-0.07962245
138	0xbd8d2f56	-0.06893794
139	0x3daaf67b	0.08347794
140	0xbd9f7b0c	-0.07787141
141	0xbda16ccc	-0.078820795
142	0x3db89962	0.090136304
143	0xbe0c1117	-0.13678394
144	0xbe02aa24	-0.12760216
145	0xbd77dc9c	-0.060513124
146	0x3d7555fc	0.059896454
147	0xbdbc8a5e	-0.09206079
148	0xbd352e90	-0.04423386
149	0x3ccce3df	0.025011001
150	0xbd5e422e	-0.054262333
151	0xbdbc9ee9	-0.09209997
152	0xbde2814b	-0.11059817
153	0xbe0d7438	-0.13813865
154	0xbce0ccbc	-0.027441375
155	0xbe004e05	-0.12529762
156	0xbdfdddf5	-0.123958506
157	0xbdc05131	-0.09390486
158	0x3d3fc9f2	0.04682345
159	0xbd1ae8f3	-0.037819814
160	0x3d1aa20b	0.037752192
161	0xbd887ce1	-0.06664444
162	0x3c1a9412	0.009434717
163	0xbab69c90	-0.0013932157
164	0x3d24e58b	0.04025797
165	0xbe48fc24	-0.19627434
166	0x3dc0409c	0.09387323
167	0xbd1c91c3	-0.038224947
168	0x3d1616c7	0.036642816
169	0xbc048cb4	-0.008090187
170	0x3d241bc2	0.040065534
171	0xbdf01862	-0.11723401
172	0x3d9d3df5	0.07677833
173	0xbd7e6334	-0.062106326
174	0x3cb5bb03	0.0221839
175	0xbdbc0384	-0.09180358
176	0x3d03313f	0.032029387
177	0xbc3711a0	-0.011173636
178	0xbc4091ed	-0.011753541
179	0x3d7aa281	0.061190132
180	0xbd441a88	-0.047876865
181	0x3d83b237	0.06430476
182	0x3d068a90	0.032846987
183	0xbda7baf9	-0.08189959
184	0x3c0f12ce	0.008732511
185	0xbdb2e181	-0.08734418
186	0xbdb5b58f	-0.0887252
187	0xbbcd6958	-0.0062686615
188	0xbdad49d6	-0.08461349
189	0xbd721acd	-0.05910759
190	0xbd0b9ee6	-0.034087084
191	0xbdbc3c51	-0.09191192
192	0xbd743ed6	-0.059630238
193	0x3da79feb	0.08184799
194	0x3d51d858	0.051231712
195	0xbd50f116	-0.051011167
196	0x3e04dd3c	0.12975019
197	0x3d184628	0.03717628
198	0xbd83847f	-0.06421756
199	0xbdbccd85	-0.09218887
200	0x3d802d8b	0.06258687
201	0xbd1ae573	-0.037816476
202	0x3bc1647f	0.0059018726
203	0xbdca1be9	-0.09868605
204	0xbc094ff4	-0.008380879
205	0x3daed58f	0.08536827
206	0x3e288925	0.16458566
207	0xbc46be9b	-0.012130405
208	0xbd0870f0	-0.03331083
209	0x3e2c8156	0.16846213
210	0xbe09feb0	-0.13476062
211	0xbc1ac937	-0.009447387
212	0x3cab3dd6	0.02090351
213	0xbcfd0e1e	-0.03089052
214	0xbd07c056	-0.03314241
215	0xbd2f5fdd	-0.04281603
216	0xbdcd1ace	-0.10014878
217	0xbd08d2c1	-0.033404116
218	0x3c80fcb5	0.0157455
219	0x3dcaedee	0.09908663
220	0xbd71a19e	-0.05899202
221	0x3dd1234e	0.10211812
222	0x3d1a64e2	0.037693866
223	0x3d81f203	0.06344988
224	0x3d73f0c4	0.059555784
225	0x3d1b683b	0.0379412
226	0x3c872136	0.016495328
227	0x3c84ba81	0.016202213
228	0x3d80e4cb	0.06293639
229	0xbe07abcc	-0.13249129
230	0x3dc328b0	0.09529245
231	0xbe124db5	-0.14287455
232	0x3e034b63	0.12821727
233	0x3ce7725a	0.02825277
234	0x3de93b91	0.113883145
235	0xbd84322c	-0.06454882
236	0xbddbf13b	-0.107393704
237	0x3b21dc8e	0.0024698111
238	0x3e25d77b	0.1619548
239	0x3e45384d	0.19259758
240	0xbca87adc	-0.020566396
241	0x3d6620a1	0.05618346
242	0x3e075997	0.1321777
243	0x3d714fb1	0.05891389
244	0xbe22dcda	-0.1590456
245	0x3d8da7ed	0.06916795
246	0xbd3edb0e	-0.046595626
247	0xbd996933	-0.07490768
248	0xbd5dff74	-0.054198697
249	0xbdffc19d	-0.12488101
250	0x3bec98fa	0.0072203847
251	0xbe2114b2	-0.15730551
252	0x3d9f7285	0.07785515
253	0x3de978c4	0.11399987
254	0xbd1e5d87	-0.038663413
255	0xbc98a778	-0.018634543

weight_hh_l0 f4 [192, 64]
0	0x3e5b64b7	0.21425138
1	0x3c24cb45	0.010058229
2	0xbe59c7ab	-0.21267574
3	0xbd81fdfa	-0.0634727
4	0x3e167904	0.14694601
5	0xbdb1b8f3	-0.086778544
6	0xbd3bd7a9	-0.045859966
7	0x3d830100	0.06396675
8	0x3d062f25	0.032759804
9	0xbdddd305	-0.108312644
10	0xbd88e2c0	-0.06683874
11	0x3e825eee	0.2546305
12	0xbcc9066a	-0.024539191
13	0xbe240f2c	-0.16021413
14	0xbcd5afd5	-0.02608482
15	0x3d2a3d87	0.041562583
16	0x3dd7f5a6	0.105449006
17	0xbe5a546c	-0.21321267
18	0x3cb59de2	0.022170011
19	0xbe173fad	-0.14770384
20	0xbe257498	-0.16157758
21	0xbdbd4af0	-0.09242809
22	0xbcb0336a	-0.021508891
23	0xbd2f1e95	-0.042753775
24	0x398ab3be	0.0002645533
25	0xbb9d00ad	-0.0047913403
26	0x3d9cc336	0.07654421
27	0x3d817131	0.06320418
28	0x3db17711	0.08665288
29	0xbd6cfa57	-0.05785593
30	0x3d09f1b6	0.03367778
31	0x3dbe0cee	0.0927981
32	0x3cb62e22	0.022238795
33	0x3e888d9a	0.26670533
34	0x3da7f915	0.082018055
35	0xbe35aa47	-0.17740737
36	0xbd405de7	-0.046964552
37	0xbe4b69ab	-0.19864528
38	0xbe00f22a	-0.12592378
39	0x3dadfa9f	0.08495068
40	0x3e3cf903	0.18454365
41	0xbcc2b034	-0.02376566
42	0xbda577f5	-0.080795206
43	0xbde7331d	-0.11289046
44	0x3df74f68	0.120756924
45	0xbe99468b	-0.29936633
46	0x3c5967be	0.013269363
47	0x3c0bd428	0.008534469
48	0x3e0d86a5	0.13820894
49	0xbe4860ac	-0.19568127
50	0xbd0702ef	-0.032961782
51	0xbe28263d	-0.16420837
52	0xbd963139	-0.07333607
53	0x3cb6b3da	0.022302557
54	0xbd991b40	-0.07475901
55	0x3d89ce7b	0.06728836
56	0x3c038498	0.008027218
57	0xbd484e52	-0.048902817
58	0x3c777abe	0.015104948
59	0xbe3ca740	-0.18423176
60	0xbdec0d2b	-0.11525949
61	0x3c72817f	0.014801382
62	0xbe1377a1	-0.14401104
63	0x3c86d3fc	0.016458504
64	0xbd9fed72	-0.07808961
65	0x3d852de3	0.06502893
66	0xbe0d0538	-0.13771522
67	0xbd119009	-0.035537753
68	0xbde0d746	-0.1097856
69	0x3d825c8e	0.0636531
70	0xbd15d9b0	-0.036584556
71	0x3d12fc0a	0.035884894
72	0xbddca36d	-0.107733585
73	0xbdab1dc1	-0.083552845
74	0xbdd981db	-0.10620471
75	0x3d935f12	0.071958676
76	0x3d3dcf84	0.04634048
77	0x3b4bee8c	0.0031117527
78	0xbdb53b36	-0.08849184
79	0x3de8e6e4	0.11372164
80	0xbdccb120	-0.099947214
81	0x3e0098c8	0.12558281
82	0x3ca56a51	0.020192297
83	0x3daae098	0.08343619
84	0x3d4912e8	0.049090296
85	0xbdeb1147	-0.11477905
86	0x3d3c2818	0.045936674
87	0xbd965b56	-0.0734164
88	0xbd845005	-0.06460575
89	0xbdb5bcfb	-0.08873936
90	0xbd2a77f7	-0.041618314
91	0x3dc87529	0.097879715
92	0x3d23460c	0.039861724
93	0xbcab27d9	-0.020893024
94	0x3d8f2fd1	0.06991542
95	0x3dafeb57	0.085898094
96	0xbd0d4129	-0.03448597
97	0xbccd47ea	-0.025058705
98	0x3db63049	0.088959284
99	0xbce8d9ca	-0.028424162
100	0xbd644813	-0.055732798
101	0x3d677e35	0.056516845
102	0x3a5026ca	0.00079403503
103	0x3d8c4d2b	0.06850656
104	0x3cac5082	0.021034483
105	0x3db4d7ef	0.088302486
106	0x3d9a4de9	0.075343914
107	0x3d127bb3	0.0357625
108	0xbca839ee	-0.020535436
109	0xbd5e00eb	-0.054200094
110	0x3cd3c93e	0.025852796
111	0x3da382d5	0.079839386
112	0x3e1c1051	0.15240599
113	0x3d85eafc	0.0653896
114	0xbd946a6d	-0.072468616
115	0xbe043e50	-0.12914395
116	0xbd6aaf4c	-0.057296082
117	0x3dec38a8	0.11534244
118	0xbc15cdc8	-0.0091433
119	0xbd0c5e26	-0.034269474
120	0xbd24e45c	-0.040256843
121	0xbd740e23	-0.059583794
122	0xbd42bb85	-0.047542114
123	0xb9efb2fc	-0.00045718986
124	0x3da4470e	0.08021365
125	0x3da61fde	0.08111547
126	0xbd1f85eb	-0.038946074
127	0xbd62bf26	-0.055358075
128	0xbc70721f	-0.014675646
129	0x3e198496	0.14991984
130	0xbc602930	-0.013681695
131	0xbe3ef69b	-0.1864876
132	0xbdfa698c	-0.12227163
133	0x3dc812af	0.097691886
134	0x3e2f0265	0.17090757
135	0x3cbf89ab	0.023381075
136	0xbcca38fd	-0.024685377
137	0xbbadf80d	-0.005309111
138	0xbd25c558	-0.040471405
139	0xbe42e63d	-0.19033141
140	0x3d8a63cc	0.06757316
141	0x3bc573dd	0.006025775
142	0xbda50988	-0.080584586
143	0x3dd3ef03	0.10348322
144	0xbe27444b	-0.16334645
145	0x3f060dc3	0.5236475
146	0x3c9d12fb	0.01917409
147	0x3ec03dd2	0.37547165
148	0x3d2b5c6e	0.041836195
149	0xbd147c5a	-0.036251403
150	0x3ca59040	0.020210385
151	0x3cb9a213	0.02266029
152	0xbca05a27	-0.019574238
153	0x3dd2635f	0.1027286
154	0xbca74fb4	-0.020423748
155	0x3b79f415	0.003813987
156	0x3c43cc17	0.011950514
157	0x3d9e5b24	0.077322274
158	0xbceb85d0	-0.02875033
159	0xbdfb451c	-0.12269041
160	0x3e26c081	0.16284372
161	0x3d616c6b	0.055035036
162	0x3db95def	0.090511195
163	0x3e969916	0.2941367
164	0x3d033ccc	0.032040402
165	0xbd2e032e	-0.0424835
166	0x3e12ba1c	0.14328808
167	0x3d818478	0.063240945
168	0xbec922a9	-0.39284256
169	0xbc563a9d	-0.013075498
170	0x3e318043	0.17334084
171	0x3e1024df	0.14076565
172	0xbe041558	-0.12898767
173	0x3d9bf960	0.07615924
174	0x3de24803	0.110488914
175	0xbd57b72f	-0.052664932
176	0xbdcfbf4b	-0.10143908
177	0x3d0badd0	0.034101307
178	0x3e00723d	0.12543578
179	0x3e26f0da	0.16302815
180	0xbd049527	-0.032368805
181	0xbd8e705e	-0.06955026
182	0xbd288f2b	-0.04115216
183	0xbcb81120	-0.022469103
184	0xbd861edd	-0.065488555
185	0xbdbaee1f	-0.09127449
186	0x3dd21e85	0.102597274
187	0x3e39cccc	0.1814453
188	0xbe0320fd	-0.12805553
189	0xbd007a1d	-0.031366456
190	0x3dc59dbd	0.09649227
191	0xbde542e5	-0.111944
192	0x3de4d9f3	0.11174383
193	0x3c449186	0.011997586
194	0x3cc5b7bb	0.024135461
195	0x3cc48c53	0.023992693
196	0x3d5bc3d5	0.053653557
197	0xbdb51b2f	-0.088430755
198	0xbdc71215	-0.09720246
199	0x3e0e4197	0.13892208
200	0x3c59d642	0.013295712
201	0x3d35d553	0.044392895
202	0xbc512059	-0.01276406
203	0x3df8502a	0.12124665
204	0x3dcae5aa	0.09907086
205	0xbd627112	-0.055283614
206	0x3e2d74a3	0.16939025
207	0x3db0c824	0.08631924
208	0x3b93fdd3	0.004516342
209	0x3dd15666	0.10221557
210	0x3d4fde88	0.05074933
211	0x3d20c797	0.039252844
212	0xbdb50e16	-0.08840577
213	0x3d12e480	0.035862446
214	0x3deaab01	0.11458398
215	0x3d405be6	0.04696264
216	0x3bddea08	0.0067722835
217	0x3df82774	0.121169
218	0x3b8bc36a	0.0042652385
219	0xbe020d99	-0.127005
220	0xbcb52689	-0.022113102
221	0x3c9c90f9	0.019112097
222	0xbdd959b5	-0.106128134
223	0x3da45981	0.08024884
224	0xbe05d4e2	-0.1306949
225	0x3cd97f34	0.026549913
226	0xbd6ee5bc	-0.05832456
227	0xbd315eb0	-0.04330319
228	0xbd0b6d0e	-0.03403955
229	0xbd9879d7	-0.07445114
230	0x3de1e140	0.11029291
231	0x3d2729e0	0.04081142
232	0x3d7a8606	0.06116297
233	0x39acc6e0	0.0003295457
234	0x3cf181b1	0.029480787
235	0xbe0da85b	-0.13833754
236	0xbd536bde	-0.051616542
237	0x3dcc79b4	0.099841505
238	0xbcacef63	-0.021110242
239	0xbde5a0f8	-0.11212343
240	0xbd36c7a9	-0.044624005
241	0x3d2e78e6	0.042595766
242	0x3d678ef8	0.05653283
243	0xbd0a9ca7	-0.0338408
244	0x3e018637	0.12648855
245	0xbd9bad4a	-0.07601412
246	0x3d452165	0.04812755
247	0xbdae7f7d	-0.0852041
248	0x3de890c7	0.11355739
249	0x3dec389f	0.11534237
250	0x3d6b3d7a	0.057431675
251	0xbd39ff15	-0.04540928
252	0x3d461a89	0.04836515
253	0x3bbfb341	0.005850226
254	0x3cd05e12	0.025435481
255	0x3dcc620d	0.09979639

bias_ih_l0 f4 [192]
0	0xbc8cf99a	-0.017208863
1	0x3da40d37	0.08010333
2	0x3e1b5992	0.15170887
3	0xbd9253e1	-0.07144905
4	0xbda68420	-0.081306696
5	0x3d3b8b88	0.045787364
6	0x3dba0474	0.090828806
7	0x3c71ea64	0.014765356
8	0xbdb266d7	-0.087110214
9	0x3da5e254	0.08099809
10	0xbbce3c51	-0.0062938114
11	0x3d6a4a2a	0.057199635
12	0xbbc9c593	-0.006157586
13	0xbc7d6d98	-0.015468024
14	0xbe064664	-0.1311279
15	0x3c994bff	0.018712996
16	0xbdc48c19	-0.09597034
17	0xbe02f5bb	-0.12789051
18	0x3da8e3d3	0.08246579
19	0xbd1d4676	-0.038397275
20	0x3da1a448	0.07892662
21	0x3d958f39	0.07302708
22	0x3dbb8ec6	0.09158091
23	0x3aed43ae	0.0018101835
24	0xbdd3b018	-0.103363216
25	0xbcf3678c	-0.029712461
26	0x3dea1a70	0.11430824
27	0xbc4d3564	-0.012524936
28	0xbccfc258	-0.025361225
29	0x3ca6fed2	0.02038518
30	0x3def32ce	0.11679612
31	0xbd8f75ce	-0.07004891
32	0xbb64d5c6	-0.0034917458
33	0x3e2289ab	0.15872829
34	0xbd6eaf20	-0.05827248
35	0x3e00f78e	0.12594435
36	0x3d3b9682	0.045797832
37	0x3cd17f51	0.025573405
38	0x3dbb2675	0.091381945
39	0xbcbef920	-0.023312151
40	0x3d9c08c8	0.076188624
41	0x3d71ecdf	0.05906379
42	0xbd82a46b	-0.063790165
43	0xbd8a0d1f	-0.06740784
44	0x3aa64274	0.00126846
45	0x3c5de820	0.013544112
46	0x3da3b692	0.07993807
47	0xbb285ab6	-0.0025688834
48	0xbdae6d5b	-0.08516952
49	0x3d81ce03	0.06338122
50	0x3dbe8d1d	0.09304259
51	0x3dc101a0	0.09424138
52	0xbbef147e	-0.007296144
53	0xbd73d38d	-0.059527922
54	0x3d906cc1	0.07051993
55	0x3d8febff	0.070274346
56	0xbc7c1e0f	-0.015388026
57	0x3d88321e	0.06650184
58	0x3d5f9203	0.054582607
59	0xbdc31aff	-0.095266335
60	0x3e148e54	0.14507419
61	0x3da925cd	0.08259163
62	0xbcd145ea	-0.025546033
63	0xbdf73346	-0.120703265
64	0x3e12b664	0.14327389
65	0x3d536bf2	0.051616617
66	0xbe25759c	-0.16158146
67	0xbe044f96	-0.12920985
68	0xbe11177a	-0.14169112
69	0x3e1dc930	0.15408778
70	0x3e23a412	0.15980557
71	0xbe14885f	-0.14505146
72	0xbd6ab06b	-0.05729715
73	0x3d75be41	0.059995893
74	0xbe000188	-0.12500584
75	0xbe751399	-0.23933257
76	0xbd400cf9	-0.04688737
77	0xbe29f5ed	-0.1659772
78	0xbe087c30	-0.13328624
79	0x3da1f516	0.079080746
80	0x3e10df68	0.14147723
81	0xbd4c9167	-0.049943354
82	0xbc3cdfe1	-0.011527986
83	0xbd82e744	-0.06391767
84	0x3bdff767	0.0068349126
85	0xbd9ca016	-0.076477215
86	0x3cae60f4	0.021286465
87	0x3c0b0cd1	0.008486942
88	0xba97a2c8	-0.0011568898
89	0xbc84af1b	-0.016196778
90	0xbdb0ab94	-0.08626476
91	0x3dcb09cb	0.09913977
92	0x3da3e428	0.08002502
93	0xbdfc66af	-0.12324273
94	0xbdc8e577	-0.09809392
95	0xbdb65aa3	-0.08904006
96	0xbe3ad35a	-0.18244687
97	0xbe4ea3a6	-0.20179614
98	0x3e221544	0.15828425
99	0xbd7ba567	-0.061437037
100	0xbe6e5450	-0.2327435
101	0xbd86c789	-0.06581027
102	0x3e05119a	0.12994996
103	0x3c804bc1	0.015661122
104	0xbe049c74	-0.12950307
105	0xbe2c5a19	-0.16831245
106	0xbe44b6f1	-0.19210412
107	0xbdad0346	-0.0844789
108	0x3d2d6daf	0.04234093
109	0x3d11024d	0.035402585
110	0xbe425e52	-0.18981293
111	0x3bfab54f	0.007651008
112	0xbdb738ab	-0.089463554
113	0xbd29c93d	-0.04145168
114	0xbe52031a	-0.20508996
115	0x3cec1996	0.028820794
116	0xbb88a4cc	-0.004170036
117	0x3d932688	0.07185084
118	0x3cf88f15	0.030341664
119	0x3d09637c	0.03354214
120	0xbc8be775	-0.01707814
121	0xbe3e68d3	-0.18594675
122	0xbe0796df	-0.13241147
123	0xbd9c75d2	-0.0763966
124	0x3ccf9a57	0.02534215
125	0xbc7c19e3	-0.015387031
126	0xbe3b8398	-0.18311918
127	0x3cea6f7a	0.02861761
128	0xbd349481	-0.044086937
129	0x3dab9cb4	0.08379498
130	0x3da41a8a	0.080128744
131	0xbdea68e2	-0.11445786
132	0x3d11566c	0.03548281
133	0x3e04a3bd	0.12953086
134	0xbbb2e2bd	-0.005459158
135	0x3e160b86	0.14652833
136	0xbd146faf	-0.036239322
137	0x3dc6ea0a	0.09712608
138	0x3dd3f151	0.10348762
139	0x3dbd174d	0.0923296
140	0xbcd3274b	-0.025775572
141	0x3beb14d9	0.007174116
142	0x3dd06dce	0.101771936
143	0xbdae03a2	-0.08496787
144	0xbd2c1da7	-0.042020466
145	0x3da27f23	0.07934406
146	0xbde8b9eb	-0.11363586
147	0x3def0b2a	0.11672051
148	0x3d6ea470	0.05826229
149	0x3df963ca	0.121772364
150	0x3c60d62d	0.0137229385
151	0x3d84d305	0.06485561
152	0xbddfdc0c	-0.109306425
153	0x3d1e1ad2	0.038599797
154	0xbde96be5	-0.113975324
155	0x3e0063c8	0.12538064
156	0x3e0282dd	0.12745233
157	0x3d4ee762	0.050513633
158	0x3d233745	0.03984763
159	0xbd9616b7	-0.07328551
160	0x3dc93954	0.098253876
161	0x3d5cb386	0.053882144
162	0xbe0d3b0c	-0.13792056
163	0x3c801f29	0.015639858
164	0xbb8b4074	-0.004249627
165	0x3dbde6a5	0.092725076
166	0x3d9589a2	0.07301642
167	0xbe017ae8	-0.12644541
168	0x3dd0992a	0.10185464
169	0x3b098927	0.002098629
170	0x3daca87b	0.084305726
171	0xbdd99df1	-0.10625828
172	0xbca85d6b	-0.020552358
173	0x3d92d461	0.07169414
174	0xbdbbb933	-0.09166183
175	0xbe1321c3	-0.14368348
176	0x3d4c36cb	0.049856942
177	0x3d747370	0.059680402
178	0xbc9cf655	-0.019160429
179	0x3d300c2a	0.04298035
180	0x3da3831b	0.07983991
181	0x3d8d6ffa	0.069061235
182	0xbdd41782	-0.10356046
183	0x3d949f7b	0.07256981
184	0x3ca4bb14	0.020108737
185	0x3e107a07	0.1410905
186	0xbcfbb61c	-0.030726485
187	0xbdb597bd	-0.088668324
188	0x3da77b8d	0.08177862
189	0x3d6848f6	0.056710206
190	0x3e09c8a8	0.1345545
191	0xbd0a5d09	-0.03378013

bias_hh_l0 f4 [192]
0	0x3d452c0f	0.04813772
1	0xbdea4ad1	-0.11440051
2	0x3d8fd4ac	0.07022986
3	0xbd6448ae	-0.055733375
4	0xbc93f594	-0.018061437
5	0x3d72e82d	0.05930345
6	0xbdc4add1	-0.09603465
7	0xbd8f54da	-0.06998606
8	0x3dc5f608	0.09666067
9	0xbd243400	-0.040088654
10	0x3cdeb812	0.027187381
11	0xbda9ce6c	-0.08291325
12	0xbdcca114	-0.09991661
13	0x3df7df88	0.12103182
14	0xbdd0e4ef	-0.101999156
15	0xbd892b86	-0.066977546
16	0xbda97837	-0.08274882
17	0xbdd7f5d8	-0.10544938
18	0xbd0e2f0e	-0.034712844
19	0xbc3e5a19	-0.011618161
20	0x3db77e7f	0.08959674
21	0x3e044427	0.12916623
22	0xbd5479ce	-0.051873975
23	0x3d449020	0.04798901
24	0xbdbe3a80	-0.09288502
25	0xbca27fbe	-0.019836303
26	0xbd504f66	-0.05085697
27	0x3e2ca012	0.16857937
28	0x3d732fb4	0.059371665
29	0x3df94d62	0.12172963
30	0x3c7272d0	0.014797881
31	0xbceea7d7	-0.029132767
32	0xbd0e0afe	-0.03467845
33	0x3de1d1f3	0.11026373
34	0x3e362f2c	0.17791432
35	0xbc8a4ae8	-0.016881421
36	0x3dabf7bc	0.08396861
37	0x3d8b2c22	0.06795527
38	0x3d9aa30f	0.07550632
39	0x3d0382a2	0.032107003
40	0x3d85639e	0.06513141
41	0x3dd1f48e	0.10251723
42	0x3ce89c7b	0.028394928
43	0x3e180e94	0.14849311
44	0xbd4b967c	-0.04970406
45	0x3dcbd12c	0.09952006
46	0x3dbebf3f	0.09313821
47	0x3e01c238	0.12671745
48	0x3d9a753b	0.07541891
49	0xbd593edb	-0.05303846
50	0x3de3dbf0	0.11125934
51	0xbdafeb5d	-0.08589814
52	0xbd58d047	-0.052933004
53	0xbdb2d6b9	-0.08732361
54	0x3de1f003	0.11032107
55	0x3d54cd44	0.05195357
56	0xbd7c77b3	-0.06163759
57	0xbcc3028b	-0.023804924
58	0x3db62587	0.088938765
59	0x3b4ecb12	0.0031554145
60	0x3d86bd05	0.06579021
61	0xbd8486bb	-0.0647101
62	0x3d057b1c	0.03258811
63	0xbdbce273	-0.09222879
64	0x3e16428f	0.14673828
65	0x3dafa1eb	0.08575805
66	0x3c6b4b2c	0.014361184
67	0x3d911d32	0.07085647
68	0xbdd74b8d	-0.10512457
69	0xbd5c0118	-0.05371198
70	0x3e1bcc74	0.15214711
71	0xbd8787fd	-0.066177346
72	0xbe02aea9	-0.1276194
73	0x3dd87586	0.10569291
74	0x3d1bc29d	0.038027395
75	0xbe7e0e6e	-0.24810192
76	0xbdcdb669	-0.100445576
77	0xbd928c9e	-0.07155727
78	0xbe2a937d	-0.16657825
79	0x3dc4d966	0.09611778
80	0xbc7c930e	-0.01541592
81	0x3d7ebf06	0.062193893
82	0x3d812294	0.063054234
83	0xbe0d7d92	-0.13817433
84	0xbded9ca5	-0.11602143
85	0xbe0ac079	-0.13549985
86	0xbbb8d452	-0.005640545
87	0xbba00e6a	-0.004884531
88	0xbe032760	-0.12807989
89	0xbc7d2ce0	-0.015452594
90	0x3d9068c5	0.07051233
91	0xbd5ea707	-0.05435851
92	0x3cac964f	0.021067766
93	0x3b57b244	0.003291265
94	0xbcbd526d	-0.023110593
95	0xbc860db0	-0.016363949
96	0x3ce476c5	0.027888665
97	0xbe4538ce	-0.1925995
98	0x3e1e5a42	0.15464118
99	0x3dd3b881	0.10337926
100	0xbd9d1abe	-0.07671116
101	0xbd08fd3b	-0.033444624
102	0x3dd5762c	0.1042293
103	0x3cd9f127	0.026604248
104	0xbdb4bb66	-0.08824806
105	0xbe5f76a9	-0.21822609
106	0xbd2eddac	-0.04269187
107	0x3da41ed3	0.08013692
108	0xbd868074	-0.06567469
109	0xbe223af1	-0.15842797
110	0xbdec4391	-0.11536325
111	0x3db3aebe	0.08773564
112	0xbdd803b0	-0.10547578
113	0xbd686314	-0.056735113
114	0xbe663875	-0.22482474
115	0xbcadc6f2	-0.021213029
116	0xbde0d0dc	-0.10977337
117	0xbe08ede3	-0.13371997
118	0x3d944f2e	0.07241665
119	0x3d29a998	0.041421503
120	0x3cd7e267	0.026353074
121	0xbdc3a798	-0.0955345
122	0xbe01f246	-0.12690076
123	0x3dec7c12	0.11547102
124	0x3df3e9f9	0.11909861
125	0xbddf557e	-0.10904978
126	0xbe0e27f0	-0.13882422
127	0xbd86ed74	-0.06588259
128	0xbd7e4aa6	-0.06208291
129	0xbd93f7df	-0.07225012
130	0xbc2064c8	-0.009789653
131	0xbdd57c18	-0.1042406
132	0xbd9e9efa	-0.07745166
133	0x3d4ecae9	0.05048648
134	0x3d83be03	0.06432726
135	0x3d968471	0.0734948
136	0x3ca284ac	0.019838654
137	0x3d3690fe	0.04457187
138	0x3cd6141c	0.026132636
139	0xbd06ccd8	-0.032910198
140	0x3db2a18c	0.08722219
141	0xbd096c0c	-0.033550307
142	0xbbffbcab	-0.0078044734
143	0x3d4d30f5	0.050095517
144	0x3c3322ed	0.01093362
145	0x3d13eeca	0.0361164
146	0xbdb37320	-0.08762193
147	0xbc9fc90e	-0.01950505
148	0xbd885139	-0.06656117
149	0x3d9e9a4f	0.07744276
150	0xbc98d46c	-0.018655978
151	0x3d5d593f	0.05404019
152	0xbc8dc030	-0.017303556
153	0xbc7201ec	-0.014770966
154	0xbcc6bf58	-0.024261162
155	0x3dd2f0a7	0.10299807
156	0xbd2c1a5b	-0.042017322
157	0x3d572ab7	0.05253097
158	0x3dcf2cea	0.101159886
159	0x3c59b566	0.013287878
160	0xbe02d534	-0.12776643
161	0x3df02fb9	0.117278524
162	0x3d518d99	0.05116043
163	0x3c91f2a3	0.017815894
164	0xbdb8ca95	-0.090230145
165	0xbcae72e0	-0.021295011
166	0xbcd1ea36	-0.025624376
167	0xbde278f8	-0.11058229
168	0xbd864a69	-0.06557161
169	0xbde40ec1	-0.111356266
170	0x3d8eb6a4	0.0696843
171	0xbde0aaf1	-0.109701045
172	0xbdb9b8c3	-0.090684436
173	0xbe132789	-0.1437055
174	0xbc91d59b	-0.01780205
175	0x3d72f985	0.05931999
176	0x3b89cead	0.004205546
177	0xbdb64839	-0.08900494
178	0x3e0a5265	0.13507994
179	0xbcd5cf08	-0.026099697
180	0xbcbf6e33	-0.023367977
181	0x3d2c35c9	0.04204348
182	0xbdffa0dc	-0.12481853
183	0xbc4d603a	-0.012535149
184	0xbe201273	-0.15632038
185	0xbd69e5a2	-0.05710376
186	0xbdc42ea1	-0.09579206
187	0xbd2af07b	-0.041733246
188	0xbc710939	-0.0147116715
189	0xbafb773f	-0.0019185318
190	0xbb826eaf	-0.0039804797
191	0xbd208295	-0.039187033

weight f4 [384, 64]
0	0x3d7841bc	0.060609564
1	0xbdc92bf4	-0.098228365
2	0xbd1c8cb9	-0.03822014
3	0xbde529d3	-0.11189618
4	0xbc9a4aee	-0.018834557
5	0x3cf66b9a	0.030080605
6	0xbda94627	-0.082653336
7	0xbd9703af	-0.073737495
8	0x3d0e985c	0.03481327
9	0xbd578f8d	-0.052627135
10	0x3dae2c24	0.08504513
11	0xbb15af50	-0.002284009
12	0x3e0753e7	0.132156
13	0xbdeb2547	-0.114817195
14	0x3df10cc4	0.11770013
15	0xbc763f5d	-0.015029755
16	0xbdc5c385	-0.09656433
17	0xbe0fe435	-0.14051898
18	0xbda49f76	-0.08038227
19	0x3c8f271f	0.01747471
20	0x3deb0d2b	0.11477121
21	0x3de24871	0.11048973
22	0xbd5c4c83	-0.053783905
23	0xbded5500	-0.11588478
24	0x3da5e015	0.08099381
25	0x3e09e2f7	0.13465486
26	0xbd85347f	-0.065041535
27	0xbdeb61ad	-0.114932396
28	0xbdbb0cff	-0.09133338
29	0x3c11b54a	0.00889332
30	0x3df3f536	0.11912005
31	0xbd6e8cec	-0.058239862
32	0x3b9d616c	0.0048028734
33	0x3c251310	0.010075346
34	0x3bba8dd3	0.0056931763
35	0xbd6c623b	-0.057710867
36	0xbe0b788e	-0.13620207
37	0xbd0db005	-0.034591693
38	0xbd972662	-0.07380368
39	0xbdaaa88e	-0.083329305
40	0x3df7835b	0.12085601
41	0xbe013624	-0.1261831
42	0xbddccc8d	-0.107812025
43	0xbdccb5bf	-0.09995603
44	0xbd133a87	-0.035944488
45	0xbdb45b67	-0.08806496
46	0xbd91904d	-0.07107601
47	0x3dd7c01a	0.10534687
48	0x3d99b889	0.075059004
49	0xbbf18a08	-0.007371191
50	0xbcc2f48b	-0.023798248
51	0x3da900f5	0.08252136
52	0x39e53d59	0.0004372399
53	0xbca54dc7	-0.020178689
54	0x3d27d215	0.040971834
55	0x3ddaa94f	0.10676824
56	0xbca30453	-0.019899523
57	0xbe0bac32	-0.13639906
58	0x3a9f14dc	0.0012136954
59	0xbcab790c	-0.020931743
60	0x3d82afd3	0.06381192
61	0xbd93d16c	-0.072176784
62	0x3cae6532	0.021288488
63	0x3ca19254	0.019723095
64	0x3dfcf2f3	0.123510264
65	0xbd6935ca	-0.056936063
66	0x3dce0ba5	0.10060815
67	0xbc5d5b75	-0.013510575
68	0xbe11f77c	-0.14254564
69	0x3daad425	0.083412446
70	0x3e21ef5a	0.15813962
71	0x3e3034a3	0.1720758
72	0xbd76b4aa	-0.06023089
73	0xbdb74cc2	-0.08950187
74	0x3dfd7c5d	0.12377236
75	0xbd2f4ade	-0.04279601
76	0x3ded1bb9	0.11577553
77	0xbddade76	-0.10686962
78	0x3df8d56c	0.12150082
79	0x3ddb3922	0.107042566
80	0x3d40d4b7	0.04707786
81	0x3c817a9a	0.015805531
82	0xbdcdab12	-0.10042395
83	0xbd7a37c6	-0.061088346
84	0x3d1c48b5	0.038155276
85	0x3e18a6bf	0.14907359
86	0x3d498945	0.049203176
87	0x3de81556	0.113321945
88	0xbdef1eb2	-0.116757765
89	0x3e05b0d1	0.13055731
90	0xbd17b979	-0.037042115
91	0x3e0c5973	0.13705997
92	0x3d2c9613	0.04213531
93	0x3b52ac49	0.0032146147
94	0xbb03f91d	-0.0020137497
95	0x3d4ca1ba	0.049958922
96	0x39eddd2c	0.00045368948
97	0x3cf307d3	0.029666817
98	0x3db19ccf	0.08672487
99	0x3e080b66	0.13285598
100	0xbe282ee6	-0.1642414
101	0x3b8f1c18	0.0043673627
102	0xbd5f3e11	-0.05450255
103	0xbd6ebe99	-0.058287237
104	0xbd92d148	-0.071688235
105	0xbe5b5b5e	-0.21421573
106	0x3e00776c	0.12545556
107	0xbd9c0542	-0.0761819
108	0x3c2b070d	0.010438693
109	0xbd5e75ec	-0.054311678
110	0x3e18d367	0.14924394
111	0x3d9181ca	0.071048334
112	0xbd8b122c	-0.067905754
113	0xbe0e28cb	-0.13882749
114	0x3bd1da15	0.006404171
115	0x3d2162ab	0.039400738
116	0xbcf06927	-0.029347016
117	0x3d8d119f	0.068881266
118	0x3e06458c	0.13112468
119	0xbd869887	-0.06572061
120	0xbd655cf3	-0.055996846
121	0xbd64bee6	-0.055846117
122	0xbd9b0b17	-0.075704746
123	0xbd04db6f	-0.03243583
124	0x3d922356	0.07135646
125	0xbd912f41	-0.07089091
126	0x3d99b289	0.07504756
127	0xbe2f9f37	-0.1715058
128	0x3e2e51df	0.17023419
129	0xbd231c8c	-0.039822146
130	0x3d8e4b2d	0.069479324
131	0xbc786aeb	-0.01516221
132	0x3dd64701	0.10462762
133	0xbc1db8e6	-0.009626603
134	0xbe0ec525	-0.13942392
135	0xbd085a90	-0.033289492
136	0x3dcfc0ea	0.10144217
137	0xbda74574	-0.08167544
138	0x3db36f24	0.08761433
139	0xbe06a320	-0.13148165
140	0xbe093624	-0.1339956
141	0x3c654dca	0.013995597
142	0x3d958f16	0.07302682
143	0x3e123f08	0.14281857
144	0x3d90b36a	0.070654705
145	0xbdd3fbd3	-0.10350766
146	0x3d4b8a76	0.049692594
147	0xbdd3e6ad	-0.10346732
148	0xbd60a044	-0.05484034
149	0xbdcc0a24	-0.09962872
150	0xbe102d3d	-0.14079757
151	0xbe4994f5	-0.19685729
152	0x3cd5b7b6	0.026088577
153	0xbe371d2e	-0.17882225
154	0x3e20e017	0.15710483
155	0xbdd95f14	-0.10613838
156	0xbd99d979	-0.07512183
157	0x3daaeb0d	0.08345614
158	0xbdae43ce	-0.085090265
159	0xbd04a68e	-0.0323854
160	0x3bb5688b	0.005536144
161	0xbe15b810	-0.14620996
162	0x3de60174	0.11230746
163	0xbb953cbe	-0.00455436
164	0x3c9e9fde	0.01936334
165	0xbc693e2c	-0.014236014
166	0xbe090ea8	-0.13384497
167	0x3e0b235b	0.13587706
168	0x3e38d15a	0.18048611
169	0x3d55e5aa	0.052220978
170	0x3a60af71	0.00085710647
171	0x3d3f51db	0.046708923
172	0x3e1d54d4	0.1536439
173	0x3d929a13	0.071582936
174	0xbd4cbef2	-0.049986787
175	0x3e1611db	0.14655249
176	0x3e163a3a	0.14670649
177	0x3d49c078	0.049255818
178	0xbbfabed4	-0.007652143
179	0xbe10118c	-0.14069194
180	0x3c4ab137	0.012371353
181	0x3ded7d4b	0.11596163
182	0xbe0033e0	-0.12519789
183	0x3e0afeed	0.13573809
184	0x3e5e2e07	0.21697246
185	0xbe5a14da	-0.21297017
186	0x3df383e2	0.11890389
187	0x3c585b7d	0.013205406
188	0xbbec6be6	-0.007215011
189	0xbe1df049	-0.15423693
190	0xbd6c2b5a	-0.05765853
191	0x3d3867f7	0.045021024
192	0x3d72866a	0.05921022
193	0x3dfc53bb	0.12320658
194	0x3d07fff7	0.03320309
195	0x3dd580c6	0.10424952
196	0xbdfb42ba	-0.122685865
197	0xbd0a648a	-0.033787288
198	0x3db4e425	0.088325776
199	0x3df68beb	0.12038406
200	0xbd93ce68	-0.07217103
201	0xbd8c040f	-0.068367116
202	0x3db7d109	0.08975417
203	0x3d933bb5	0.071891226
204	0xbc12d1f5	-0.0089611905
205	0xbd9d1cd5	-0.07671515
206	0x3d8e42d8	0.06946343
207	0xbdd1e43b	-0.1024861
208	0x3dbf5505	0.09342388
209	0xbd46d0bd	-0.048538912
210	0xbdfcf87e	-0.123520836
211	0x3b66f97e	0.0035243924
212	0x3cb6f438	0.02233325
213	0xbd2845ee	-0.041082315
214	0xbdc8baa6	-0.09801225
215	0xbd874dd5	-0.06606642
216	0xbe060647	-0.13088332
217	0x3dae3e38	0.08507961
218	0xbd640978	-0.055673093
219	0xbdf4cd16	-0.119531795
220	0xbd163410	-0.036670744
221	0x3c934741	0.017978312
222	0x3dc1cfa9	0.09463436
223	0x3d5a084b	0.053230565
224	0xbd995409	-0.074867316
225	0xbb861b6b	-0.004092624
226	0xbdc76684	-0.0973635
227	0xbd7c55c7	-0.06160524
228	0xbcd75d75	-0.026289681
229	0x3cd2eb41	0.025746943
230	0xbd286594	-0.041112497
231	0xbdc33f9e	-0.095336184
232	0xbdd2f6f8	-0.10301012
233	0xbe436e6c	-0.19085091
234	0x3dd5ae02	0.1043358
235	0xbca6dc64	-0.020368762
236	0x3dd8abab	0.10579618
237	0xbd7d48ad	-0.061836887
238	0x3deaece7	0.11470967
239	0xbd0bec34	-0.034160808
240	0xbd3df9e3	-0.04638089
241	0x3b9c1f18	0.004764449
242	0x3dfd3331	0.123632796
243	0xbd93d7d9	-0.07218904
244	0xbda885e4	-0.082286626
245	0xbdca068b	-0.09864529
246	0x3df0ac32	0.11751594
247	0x3cee0ab0	0.02905783
248	0xbe0d0af9	-0.13773717
249	0xbd0910a6	-0.033463143
250	0x3d8d9d7e	0.06914805
251	0xbd2adbe1	-0.0417136
252	0xbe2098dd	-0.15683313
253	0xbdb17bbc	-0.086661786
254	0xbc5cd020	-0.013477355
255	0x3d9fa534	0.07795182

bias f4 [384]
0	0xbbca6f73	-0.0061778366
1	0x3e2384f0	0.1596868
2	0xbaf88d66	-0.0018963038
3	0x3dd39197	0.103305034
4	0x3d917d22	0.07103945
5	0x3e415405	0.18879707
6	0x3e242fba	0.16033831
7	0xbe53a763	-0.20669322
8	0x3dc4c8b6	0.09608595
9	0xbe0cd235	-0.13752063
10	0xbd9944c3	-0.074838184
11	0x3df6ae5a	0.12044974
12	0x3e1fc973	0.1560419
13	0x3d45cb5e	0.04828965
14	0x3e15feac	0.14647931
15	0x3ca0c272	0.019623969
16	0xbe08ab0c	-0.13346499
17	0x3df96589	0.121775694
18	0x3dcfba92	0.10143007
19	0x3e2ff96c	0.1718499
20	0xbd7af40e	-0.061267905
21	0x3e05cfde	0.13067576
22	0x3e56bd00	0.20970535
23	0x3e358cfc	0.17729563
24	0x3e58edea	0.21184507
25	0xbc4353ac	-0.011921804
26	0x3bf54a8e	0.0074856943
27	0x3e16b5d9	0.14717807
28	0x3d35de9c	0.04440175
29	0x3d8318f9	0.064012475
30	0x3e32ed25	0.17473276
31	0xbd85c438	-0.065315664
32	0x3c02b533	0.007977772
33	0xbd2aaca0	-0.041668534
34	0x3d58bb14	0.052912787
35	0x3e20f00b	0.15716569
36	0xbd412f07	-0.04716399
37	0x3dcfdbf0	0.101493716
38	0x3c6e2fab	0.014537732
39	0xbe0a5229	-0.13507904
40	0xbdf93305	-0.12167934
41	0x3d46d7cb	0.04854564
42	0x3e1d78c6	0.15378103
43	0x3e46eb5e	0.19425723
44	0xbb963915	-0.0045844414
45	0xbd573d1a	-0.052548505
46	0x3d8f1b1f	0.06987595
47	0x3de9aee3	0.1141031
48	0x3e4e87ef	0.20169042
49	0x3d18919c	0.03724824
50	0xbd824eeb	-0.06362709
51	0x3df0d655	0.117596306
52	0x3e5f4cbc	0.21806616
53	0x3e19462f	0.14968179
54	0x3e29f273	0.16596393
55	0x3e377200	0.17914581
56	0x3e2b83b2	0.16749457
57	0x3dbeade5	0.093105115
58	0x3e6d4ec4	0.23174578
59	0x3e1962aa	0.14979044
60	0x3dff6457	0.1247031
61	0x3e343847	0.17599593
62	0x3dddd4bc	0.108315915
63	0xbd338936	-0.043832026
64	0xbe052855	-0.13003667
65	0xbe5be3a3	-0.21473555
66	0x3c0f6d61	0.008754105
67	0xbe111f56	-0.1417211
68	0xbd9f99b2	-0.07792987
69	0xbe7771fd	-0.24164577
70	0xbe57220a	-0.21009079
71	0xbd5d389a	-0.054009058
72	0xbddf2ab6	-0.10896818
73	0xbbfec07a	-0.00777441
74	0x3d7293d7	0.059223022
75	0xbe37b0df	-0.17938565
76	0xbdd2d8a2	-0.10295226
77	0xbdbd150a	-0.092325285
78	0xbb8dbeb9	-0.0043257144
79	0xbe86a40e	-0.2629704
80	0xbd5822f9	-0.052767728
81	0x38ba9f88	8.898886e-05
82	0xbdc58c64	-0.09645918
83	0xbe2a466a	-0.16628423
84	0xbe0bb2fe	-0.13642499
85	0xbda46d9a	-0.08028717
86	0xbd3800c1	-0.044922594
87	0xbe1b1ddb	-0.15148108
88	0x3cb90aad	0.022588098
89	0xbe1a8a31	-0.15091778
90	0x3bb071da	0.005384666
91	0xbe27227a	-0.16321746
92	0xbe269458	-0.16267526
93	0xbe1a1c1c	-0.15049785
94	0x3c0543f3	0.008133876
95	0xbbcebc3f	-0.006309062
96	0xbdc226ac	-0.09480032
97	0xbdf37909	-0.1188832
98	0xbe5bca29	-0.21463837
99	0xbe5da0cf	-0.21643375
100	0xbdb10e2c	-0.08645281
101	0xbdb8051f	-0.08985352
102	0xbd8aa68e	-0.06770049
103	0x3dab9648	0.08378273
104	0x3ccc7300	0.02495718
105	0xbe0459b3	-0.12924843
106	0xbe1a8c6c	-0.15092629
107	0xbe3d3c1c	-0.18479961
108	0x3b04e4dd	0.0020278015
109	0xbe107a18	-0.14109075
110	0xbe22b1a3	-0.15888076
111	0xbcbda0df	-0.023147998
112	0xbcd394d0	-0.025827795
113	0xbc33fb24	-0.01098517
114	0xbcdfc9dd	-0.027317936
115	0xbce9915a	-0.028511692
116	0xbe4b329e	-0.19843528
117	0xbd5b5338	-0.05354616
118	0xbe4e3f28	-0.2014128
119	0xbe0a6802	-0.13516238
120	0xbdf8fddc	-0.12157795
121	0x3c2a71b4	0.0104030855
122	0xbc94bb08	-0.01815559
123	0xbe495bb9	-0.19663896
124	0xbe155c0e	-0.14585897
125	0xbe133c30	-0.14378428
126	0xbe007c5b	-0.12547438
127	0xbd6de93a	-0.05808375
128	0xbe535e41	-0.20641424
129	0x3ddc21ca	0.10748632
130	0x3d231e6b	0.03982393
131	0x3aa7aa42	0.001279183
132	0x3d2e59cd	0.04256611
133	0x3d7b53cd	0.061359216
134	0x3e2eca5c	0.17069381
135	0xbdbc88bf	-0.0920577
136	0xbd84e172	-0.06488313
137	0xbd728a76	-0.059214078
138	0x3dc94bcf	0.098289125
139	0x3d9abd5e	0.0755565
140	0xbb1e259e	-0.0024131308
141	0xbd388c6b	-0.045055788
142	0xbde4ad18	-0.111658275
143	0x3c1971bb	0.009365494
144	0xbdc0675d	-0.09394715
145	0xbe11c821	-0.142365
146	0x3ce3eaf2	0.027821992
147	0xbd902d33	-0.07039871
148	0xbe34cf24	-0.17657143
149	0xbd80e0d3	-0.06292882
150	0xbda941e8	-0.08264524
151	0x3dbf8ba1	0.09352804
152	0x3c8d5ce8	0.017256215
153	0xbdc61142	-0.096712604
154	0x3ca569f8	0.020192131
155	0x3d76985a	0.060203888
156	0xbe28b674	-0.1647585
157	0xbcd71c7d	-0.026258701
158	0x3c809a14	0.01569847
159	0x3cd307e3	0.025760597
160	0xbd1dc645	-0.038519163
161	0xbdde5175	-0.108553804
162	0x3d4015ca	0.04689578
163	0xbc06bedf	-0.008224218
164	0xbcfc1a70	-0.030774325
165	0xbd73b854	-0.05950196
166	0x3c977586	0.018488657
167	0xbc3fb214	-0.011700172
168	0x3cb65c10	0.022260696
169	0xbe144e7b	-0.14483063
170	0x3db8a559	0.090159126
171	0x3e3de29a	0.18543473
172	0xbdcf4e1f	-0.10122322
173	0xbe1e0738	-0.15432441
174	0xbe18ef28	-0.14934981
175	0xbdfc5ea0	-0.12322736
176	0x3de210e3	0.11038377
177	0x3d173590	0.036916316
178	0x3bffc510	0.007805474
179	0x3daa04f5	0.08301727
180	0x3de481e7	0.111575894
181	0x3e2ab978	0.16672313
182	0x3b71d1a9	0.0036898649
183	0x3d04bfd7	0.032409515
184	0x3d07ae94	0.033125475
185	0x3c5c1944	0.013433758
186	0xbcdfeddc	-0.0273351
187	0x3c358629	0.01107935
188	0xbccf3518	-0.025293872
189	0x3d2c9d54	0.042142227
190	0xbcd474a3	-0.025934523
191	0xbd0c12d9	-0.034197662
192	0x3e129c67	0.14317475
193	0x3e571a20	0.2100606
194	0xbdfd08be	-0.12355183
195	0xbe06dcab	-0.13170116
196	0xbc1da31e	-0.00962141
197	0xbdbe4656	-0.09290759
198	0xbdadd7e4	-0.084884435
199	0x3df3c87e	0.11903475
200	0x3c82460b	0.01590254
201	0xbc897215	-0.016778031
202	0x3d79bc35	0.060970504
203	0x3e2cd2ac	0.1687724
204	0x3db001d8	0.08594102
205	0x3ccf536f	0.025308339
206	0x3d7a8912	0.061165877
207	0xbc5deccf	-0.013545229
208	0xbdf69d32	-0.120417014
209	0x3d318b9a	0.043346025
210	0x3d8130d4	0.06308141
211	0xbd74a44c	-0.059727
212	0x3e0596c4	0.13045794
213	0xbdac110b	-0.08401688
214	0x3dea405d	0.114380576
215	0x3c53ffbd	0.012939391
216	0x3e75d399	0.240065
217	0xbdc5ee49	-0.0966459
218	0xbddb2ba5	-0.10701684
219	0x3c83037c	0.015992872
220	0x3e4df519	0.20113029
221	0xbe389fd4	-0.1802972
222	0xbcc9257c	-0.024554007
223	0x3dd9ac1b	0.1062853
224	0xbccaeb5e	-0.024770435
225	0x3e431998	0.19052732
226	0x3df03533	0.11728897
227	0x3ce35d9b	0.027754596
228	0x3da18ee7	0.078885846
229	0x3e178e9a	0.14800492
230	0x3ae2e477	0.001731052
231	0xbe681c5f	-0.22667073
232	0x3dad7510	0.084695935
233	0xbe222f83	-0.15838437
234	0x3e3c3d0e	0.18382666
235	0x3e6a2fe1	0.22869827
236	0x3dda68e2	0.10664536
237	0x3def3317	0.116796665
238	0x3d8fe6e6	0.07026462
239	0x3d8b8483	0.06812384
240	0x3df82fe3	0.12118509
241	0xbd3fbe88	-0.046812564
242	0x3e216c04	0.15763861
243	0x3c83ef56	0.016105335
244	0x3e1beb6f	0.1522653
245	0xbdd7815a	-0.10522719
246	0x3c04454c	0.008073162
247	0xbd0fb7c3	-0.03508736
248	0xbd4c73b7	-0.04991504
249	0x3e361106	0.17779931
250	0x3e39adb4	0.18132669
251	0x3d9c87c5	0.076430835
252	0x3e465ea1	0.19372036
253	0xbda29beb	-0.07939895
254	0x3b84113c	0.004030375
255	0x3d1f40e6	0.03888025
