models/hawkes_dep_I.pth (torch, 181259 bytes, 10 tensors)

context_init f4 [64]
00000000: d357 9cbe 5602 333e 4805 b23d be95 15be
00000010: 8a5f 70be 2dea 6dbe e607 663e e8d0 57be
00000020: 7e7b 623e c48d 79be 5db4 5cbe 9f91 8e3e
00000030: 9e66 a83e 9c55 7e3e a214 5b3e 0227 10be
00000040: b38a a1bd 202d 1e3e 95c5 54be bc77 3bbe
00000050: d554 8fbe 1c5e 31be a87f e33a e0cd 8e3e
00000060: 4642 afbe 6c30 893e 6e59 a23e 7b60 90be
00000070: 8850 3ebd 7aa8 6f3e b550 9fbe 27b0 83be
00000080: 917c 993e 49e3 893c 2877 4cbe 01a5 acbe
00000090: 282c 39be fb16 a0be 2a4d 78be a0cf 143d
000000a0: 3714 5ebe be36 a53e 9a48 99be f863 b9be
000000b0: 42ba 4b3e 899c adbe 1f8e a73e 7da1 553e
000000c0: 9770 d1bd 231f 99be 94ae a3be a8ff 6b3e
000000d0: 2d51 813e c959 4ebe 09fa d63e c18f c33d
000000e0: 074a a23d 1140 5fbe e9c7 153e e71e 183e
000000f0: 1e66 433d de0c 91be 61d4 5cbe 6759 35be
-0.30535755 0.1748136 0.086924136 -0.14607903 -0.23473945 -0.23233862 0.2246395 -0.21075785
0.22117421 -0.24370486 -0.21553178 0.27845475 0.3289079 0.24837345 0.2139459 -0.1407738
-0.07887783 0.15446901 -0.20778497 -0.18307394 -0.2799441 -0.17321056 0.001735677 0.27891445
-0.3423025 0.26794755 0.31708854 -0.2819861 -0.04646352 0.23404112 -0.31116262 -0.2572033
0.2997785 0.01683201 -0.1996733 -0.33719638 -0.1808325 -0.31267533 -0.24248186 0.03633082
-0.21687399 0.32268327 -0.29938203 -0.36209083 0.1989527 -0.3390849 0.32725617 0.20862384
-0.10226553 -0.29906568 -0.3196913 0.23046744 0.25257245 -0.20151438 0.41987637 0.09548903
0.07924276 -0.21801783 0.14627041 0.14855538 0.04770481 -0.2833013 -0.21565391 -0.17709886

weight f4 [2, 32]
00000000: 42c0 243f 3196 c8be cd42 b73e 3a81 80bf
00000010: 8d98 0b3f e468 ba3f b9b3 25bf 92d6 823f
00000020: cba1 2abf d2d4 a5be aabc d93e b5dc 8dbe
00000030: a0c9 003f a587 3e3f 740d 843e cafb c43e
00000040: 657d eebe 0654 9c3f 8dab 973f 03d4 703f
00000050: 2c9d 8c3f 9563 d23c 45ac 863f 3788 203f
00000060: 6d88 363e 3947 c1be 7e6c 6abf 4587 283e
00000070: 995d 0cbf 2913 a5bf 0916 be3f a9b9 553f
00000080: 345d 20be 8dc4 f83e 3353 62be a7bc 70bf
00000090: b7b8 0ac0 4c3c 0a3f d7de 0ac0 05ff ccbe
000000a0: 53f8 993f d8ad 353f 44a2 8dbe 45b6 8fbe
000000b0: 683c 86be 6e17 453f 3d48 90bf 43ac f1bd
000000c0: 9d13 413f b3d0 a23f 93b8 f43d 3186 c7be
000000d0: 06e5 bf3f 216e 5bba 1f13 a8bd 29fa 403c
000000e0: c795 1dbf 01e4 edbf ff42 8c3f 629a 1f3f
000000f0: dc95 d1be c159 3e3f 0f67 27bf d26f 4d3f
0.6435586 -0.39177087 0.35793152 -1.0039437 0.5452965 1.456326 -0.6472736 1.0221732
-0.66653126 -0.32388932 0.42526752 -0.2770745 0.50307655 0.7442573 0.25791514 0.3847335
-0.46580043 1.2213142 1.1849228 0.94073504 1.0985465 0.02568225 1.0521322 0.6270785
0.1782548 -0.3774965 -0.91571796 0.16457851 -0.5483032 -1.2896472 1.4850475 0.8348642
-0.15660554 0.48587456 -0.2210205 -0.9403786 -2.167524 0.53998256 -2.169851 -0.40038314
1.2028908 0.7096839 -0.2766286 -0.28068748 -0.2621796 0.76988876 -1.1272045 -0.118004344
0.7542055 1.271994 0.11949267 -0.38969567 1.4991767 -0.00083705975 -0.08206772 0.011778393
-0.6155667 -1.8585206 1.0957946 0.62344944 -0.40934646 0.74355704 -0.6539163 0.8024875

weight f4 [2, 64]
00000000: 4462 da3c da7c bbbd a542 36bb 8b9e 86bd
00000010: 2267 25bd 4fde 9d3d 96ce d93b 2c55 abbb
00000020: 635e a13d dbd4 a8bd 377e 7c3b 3de8 36bd
00000030: 0054 e9bb 1d4a 9d3d 04f1 0abd cdfa 2bbd
00000040: 9635 b3bd 76c4 b83d 3316 283c 6eea 4ebb
00000050: 96c3 65bd e972 92bc cb26 26bb 1da5 e1bc
00000060: 0ce4 cdbd ab1f 153d ab8b 17bd df09 233d
00000070: 4658 b7bd a554 52bc aa46 bbbd d437 da3b
00000080: 6d41 0d3d 0313 aa3d 5326 22bd a913 eebd
00000090: 22a8 2abd f276 43bc c9b1 19bd 754b de3d
000000a0: 756e dcb8 f00d e13b 8ebc 4c3d 3e5a b03d
000000b0: e5e1 fb3d d431 a8bb 7431 933c fa7c 043e
000000c0: 6a6c 80bd 18b0 45bd 3d8a 8cbd 8e6f 9dbd
000000d0: ab2d 8dbd 3154 aeba 844c 0e3d 2275 293d
000000e0: 8fa0 2d3d 39d3 13bd 8d9e b63c 9512 4c3d
000000f0: fce3 db3d 5f4a 50bd 8c54 2fbd 5f66 dfbd
00000100: 023c ff3c 375e c3bd 43f3 7cbd 71b6 9d3c
00000110: 23f4 113e 0fe1 c53d 6f8c 44bc 31ef 4f3d
00000120: 9742 64bd 812e fbbc ebb1 bd3d 2d69 61bc
00000130: cef1 3dbd 9c0e 8c3d e395 98bd 7246 8ebc
00000140: 227e 773c ef3b 5b3c c0e2 cdbb 79e6 1cbd
00000150: 778a 3b3c 0664 72bc 46eb a73d 2b23 a9bd
00000160: f324 73bd 6ed2 aabc 275f 6dbd 76d4 f03d
00000170: b089 bc3d 76be 9cbd 38bf c5bd 0e42 96bd
00000180: 424c 403c 2553 0fbc f730 c53d 501b 26bd
00000190: 72ef d83d cdb8 3abc 3658 5d3e c1df b0bd
000001a0: ea3b b73d c605 33bc 1ef5 dd3d 3941 d53d
000001b0: 6ea7 1dbd 3205 ca3c f678 283d dea4 1bbd
000001c0: 2ee6 c3bd bd4f 82bc 8fad 29bd dab8 00be
000001d0: 9b1e c1bd 5a46 d13d a6df 413c d6c1 e3bd
000001e0: a7e6 99bd dcdd c33d 8c03 5cbc c8c0 c23d
000001f0: 1a93 b3bd a2a6 12bb 19be 9f3d 2b8b de3d
0.026658185 -0.09154673 -0.002781072 -0.065732084 -0.04038156 0.077084176 0.0066469414 -0.005228659
0.07879331 -0.08243724 0.0038527378 -0.044655073 -0.0071206093 0.076801516 -0.033921257 -0.04198723
-0.08750455 0.09021847 0.010259199 -0.0031572836 -0.05609473 -0.017877059 -0.0025352712 -0.027544552
-0.10053262 0.036407154 -0.036998432 0.039804336 -0.08952384 -0.012837564 -0.091443375 0.0066594873
0.034486223 0.083044074 -0.03958733 -0.116248436 -0.04166425 -0.011930214 -0.037523065 0.10854236
-0.00010510992 0.0068681166 0.049984507 0.08610962 0.12298945 -0.005132893 0.017967917 0.129383
-0.06270678 -0.04826364 -0.06862304 -0.07687293 -0.06893476 -0.0013300237 0.03474094 0.041371472
0.04238945 -0.03609011 0.0222924 0.04982241 0.10736844 -0.050852176 -0.04280524 -0.109081976
0.031156544 -0.095394544 -0.06175543 0.019252034 0.14253287 0.09662067 -0.011996373 0.05076522
-0.055727568 -0.030661823 0.09262451 -0.013757986 -0.04637318 0.06838724 -0.074504636 -0.017367575
0.015105756 0.0133809885 -0.006283134 -0.038305733 0.011446587 -0.014794355 0.08199172 -0.08258661
-0.05936141 -0.020852294 -0.057952072 0.11759274 0.09205949 -0.07653515 -0.09655613 -0.07336818
0.011736931 -0.008747851 0.0962848 -0.04055339 0.105925456 -0.011396599 0.21615681 -0.08636428
0.089469746 -0.010926669 0.10837768 0.10412831 -0.03848975 0.02466068 0.041130982 -0.037999026
-0.09565388 -0.015907163 -0.041425284 -0.12570515 -0.09429666 0.102184966 0.011833107 -0.11120956
-0.075146966 0.09563801 -0.01342858 0.09509426 -0.08768292 -0.0022377153 0.0779993 0.10866388

bias f4 [2]
00000000: 074b 583c 1850 6d3d
0.013201482 0.05793771

weight_ih_l0 f4 [192, 33]
00000000: f11c 82bd dffd fcbc 8af1 91bc 07c1 1f3d
00000010: 1b42 f43d 8efa e9bd 5bfb 81bd 2639 e1bd
00000020: 96a9 073d cac2 9c3d 82c2 1c3e 47d6 d6bd
00000030: 0faf a5bc 017d a53c 5d41 a83d 5c54 0abe
00000040: 89ef bdbc 29b5 ec3b 4195 07be 10a9 17be
00000050: 73a0 94bc 1d48 9b3d 3f92 d1bc 7705 acbd
00000060: 297c 893d 193d 2cbd 58ff c5bd e1e8 763d
00000070: 804d a0bc 579e 933d e077 d23d 5354 c5bd
00000080: 6285 533d 01cf a43d a0e0 24bc eedb 953d
00000090: d50b b13c 5982 503c 0a60 a9bd 9566 313d
000000a0: 5185 a43d da6e 6eba b863 1abd a13f 4bbd
000000b0: ced6 f9bc cac7 963d f601 893d 4aba 753b
000000c0: 5009 723c c01e 83bd c485 003e 1941 c5bd
000000d0: 1388 463d 8f4d 7dbd dea1 903d fd9c fabc
000000e0: 0d0d 95bd 6a69 1b3d 5419 08be fff8 ccbd
000000f0: a934 673d e112 b2bd 010f 643c 7783 e9bc
00000100: 9f5a 713c 92ed bfbd f1ee 123d 5a91 39bd
00000110: e942 21bd 9d4b 06be cd35 3f3d aeb7 4ebd
00000120: d313 f03d c536 ee3c fadc aebd 2da3 493c
00000130: cf3e dd3d 94d8 aabd fd8e 5abc df32 73bd
00000140: 6a16 f23d b3f1 c4bc 9c74 0f3d 9502 1d3e
00000150: 1e1b a73b 4386 aebd 32dd 08bd 6563 a93d
00000160: 731e b33d 20cb e0bd bec5 723d 822c 3ebc
00000170: 21fe 793c 439f c23c dfbf 283e aacf 5abd
00000180: e485 f73d 9be8 ccbd 9b43 a6bd fc86 cb3e
00000190: d13a 143e e557 2abe 6dd9 1b3e e620 203d
000001a0: ef59 1a3e 2a9d 313d 6ec3 bfbd c27d 82bb
000001b0: 7465 b7bd 885e 34be de02 903d 81ce cc3d
000001c0: f52b d2bb af70 64bc 7eb9 e93d 24f8 113e
000001d0: 90f2 afbd 6cf7 1c3c 0ec1 603c 7206 57bd
000001e0: c831 5e3c 7299 f93c eef2 0b3e 5b09 99bd
000001f0: fa3f 033d 0333 343d 1b97 263c b3f9 463c
00000200: 6d6b 883d e504 88bd 5066 2b3e 1547 3f3d
00000210: d084 79be ff5c c2bd 96f7 0d3d cc7f 863c
00000220: abc9 68bc 731b d93d d058 a0bd 5f79 cc3c
00000230: 778d 873d ec61 47bd c5f8 a13d 84eb f43d
00000240: bd94 8f3d e569 473d eb66 a9bd 56e0 643d
00000250: 3e9a 20bd f681 b4bd cd53 813c e470 b9bd
00000260: 9417 df3c 480a 243c 1576 7bbd 7f5d e73d
00000270: 6104 07be e701 e63d 78f9 01bd fe31 2f3d
00000280: 9a41 b33d 4660 923d b844 933c d281 18bd
00000290: 5bb5 d6bc 1378 8bbd 178f 463d e684 a7bd
000002a0: e114 b1bc 0e45 65bd c231 92bd 7582 dabd
000002b0: 2834 be3d b99b 21bc 4de1 053e d683 53bd
000002c0: 8d81 95bd 627c ca3d d150 e8bc 4758 e03c
000002d0: 9273 913d e905 353d 01d3 be3d 46e7 353d
000002e0: ed26 b7bd f5b8 36bd 4064 5b3d 8632 4fbd
000002f0: 3d57 46bc c691 9d3d 2f68 99ba 4f76 2b3c
00000300: 84f9 023e d421 abbd 9d50 933d acad 1f3e
00000310: 6d48 02be d782 ddbd 2300 02bf b129 fabd
00000320: 26ce bdbd cfcf e63c 9ea4 7a3d 320a ce3d
00000330: 1daf 3b3c 35c0 b9bc 8698 24be 7f6c 023d
00000340: 9cdd 98bc a121 9f3d 96d5 84bc 6d65 ffbd
00000350: 0c17 36bc a314 183d 66f9 25be ea98 4dbd
00000360: 7e68 103c 1500 0ebe 28b0 a8bc d2da f0bc
00000370: 43ec 57bd 138e 113d 7e5a 01bd 2978 9fbc
00000380: cc76 89bc 53d3 b9bd cacb 2cbe ae8c e33d
00000390: c601 113e d554 abbc 7453 b7bd a3a9 6d3d
000003a0: 28b4 b03d 8357 85bd 4629 28bd 49b5 b8bd
000003b0: bbec eabd 0fd1 d6bc 8d19 a03b 9116 fc3a
000003c0: e71f f8bd e4b1 123d 7313 5b3d 1fe6 aabd
000003d0: 324a 81bd 8bc5 c9bb faae 69bc a4bf d8bd
000003e0: be2a 5c3c 1a1b cdbd dd5f 70bd 0c64 a8bd
000003f0: 9957 8b3d f078 313a 70fa c0bd 03d0 e93d
-0.063531764 -0.030882774 -0.01781537 0.039002445 0.11926671 -0.11424743 -0.063467704 -0.10997228
0.033120714 0.076543406 0.15308574 -0.10490089 -0.020225076 0.020201208 0.08215592 -0.13508743
-0.023185508 0.0072237444 -0.1324053 -0.14810586 -0.018142914 0.07582114 -0.02558243 -0.0839948
0.06713135 -0.042050455 -0.096678436 0.060280684 -0.019568205 0.07207935 0.102767706 -0.09635224
0.051640876 0.08047295 -0.01006332 0.07317339 0.021612087 0.01272639 -0.08270271 0.04331072
0.080332406 -0.00090954977 -0.037692755 -0.049621228 -0.030497935 0.073623255 0.06689827 0.003749507
0.014772728 -0.064023495 0.12551028 -0.09631557 0.048469614 -0.061841544 0.07062124 -0.030592436
-0.0727788 0.037942328 -0.13290912 -0.1000843 0.056446705 -0.08695007 0.013919593 -0.02850507
0.014731078 -0.09371485 0.035872404 -0.045304634 -0.03937045 -0.13114782 0.046682168 -0.05046814
0.11722531 0.02907885 -0.08538242 0.012306971 0.108029954 -0.0834209 -0.013339755 -0.059374686
0.118206814 -0.024041032 0.035023317 0.15333016 0.005099668 -0.08521702 -0.033414073 0.08270911
0.08746042 -0.10976243 0.059270613 -0.011607291 0.015258343 0.023757583 0.16479443 -0.0534207
0.120860845 -0.100053035 -0.081183635 0.39751422 0.14475562 -0.16635092 0.1521966 0.039093874
0.1507337 0.043362774 -0.09363447 -0.0039822767 -0.089548975 -0.17614186 0.07031797 0.10000325
-0.0064139315 -0.0139428815 0.11412333 0.14254814 -0.08591187 0.009580474 0.013717903 -0.05249638
0.013561673 0.030468676 0.13666889 -0.074724875 0.032043435 0.04399396 0.010167862 0.012144494
0.06661115 -0.066415586 0.16738248 0.04669865 -0.2436707 -0.09490394 0.034659944 0.01641836
-0.014208238 0.10600939 -0.0782944 0.024960218 0.06618779 -0.04867737 0.07908777 0.119589835
0.070107915 0.048684973 -0.08271583 0.055878006 -0.039209597 -0.088138506 0.01578703 -0.09054735
0.027232923 0.010012217 -0.06139191 0.1129713 -0.13185264 0.112308316 -0.031732053 0.042772286
0.08752747 0.07147269 0.017977104 -0.03723318 -0.026209524 -0.06810012 0.048476305 -0.08179645
-0.021616401 -0.05597406 -0.07138397 -0.10669414 0.09287292 -0.009863787 0.13074227 -0.0516394
-0.073001005 0.098870054 -0.028358849 0.027385844 0.071021214 0.04419509 0.093175896 0.044410013
-0.089429714 -0.044609983 0.053562403 -0.050585292 -0.01210576 0.0769382 -0.0011704023 0.010465219
0.12790495 -0.083560616 0.0719311 0.15593594 -0.1272294 -0.10815971 -0.5078146 -0.12214983
-0.09267835 0.028175263 0.061192147 0.10060538 0.0114553245 -0.02267466 -0.16073808 0.03184175
-0.01866036 0.07770086 -0.016215127 -0.12470517 -0.011113893 0.037129056 -0.16208419 -0.05019466
0.008813975 -0.13867219 -0.02059181 -0.029401217 -0.05271555 0.035535883 -0.03158044 -0.019466477
-0.01678028 -0.0907351 -0.16874614 0.11110817 0.14160833 -0.020914475 -0.08951464 0.058023106
0.08628112 -0.06510832 -0.041054986 -0.090189524 -0.11470934 -0.026222734 0.0048858584 0.00192328
-0.1211546 0.03581418 0.053485345 -0.08344673 -0.0631298 -0.006157582 -0.014262909 -0.105834275
0.013437925 -0.10014935 -0.058685172 -0.082222074 0.06803817 0.0006770035 -0.09422767 0.11416628

weight_hh_l0 f4 [192, 64]
00000000: b6ae 463d d1ad 7d3d 8807 a13d 49ea 9bbd
00000010: a078 3a3d a0cb a93c dfae 12be ee2c 153d
00000020: 8c5f 97bc d548 523c d64f ec3d 672b 143d
00000030: ce0b 283e c396 373d cb9c 64be b8dd bcbd
00000040: eabe 20bc 3650 663e 283c c9bd 6088 9a3e
00000050: dc53 56bd 03b5 2ebc acf7 1dbd 901e 883d
00000060: aec3 653c b224 10be 6dd2 e63d d349 eabd
00000070: d646 8e3c 32fb 33be 914e 7cbd 87b5 253e
00000080: 27c1 adbd 25c9 ff3d ae5a debd 4b8c 96bd
00000090: cd53 263e 5a6b 5f3d c1fb 3a3e cf44 bdbc
000000a0: 10a8 a53d a9bf febc 1484 50bc ae8b d43d
000000b0: 4be8 b7bd 34d4 6c3c 7756 89bd 3ab7 78be
000000c0: dcf4 ba3c 69d2 3a3e 45b9 b9bd 4037 aa3a
000000d0: b5e2 af3d c1e0 6a3e 8ed8 a23d dbbd 25bc
000000e0: eb83 333c 974f e33d 80f0 e73c 94f9 d5bb
000000f0: 212e 883b 6f68 743c f2d5 fd3c 9c32 d73a
00000100: 6f2d ac3d 8ac7 893d d84f 92bd f83b 953d
00000110: 220d 91bc cc71 c0bc 635c 16be 7202 0c3d
00000120: e9d5 113e 5454 4abd 58b6 0abd 98fb 4bbe
00000130: 3530 bc3d 3dbb 91bd 8d4c 673a e542 04be
00000140: 142c 8c3d 8a5a 683d 915d 723e cc98 b13d
00000150: a23f 703e 30fb 0e3d 150f a0bd d2dc 63be
00000160: 1996 8abd 1f4a 893d 07fe 9e3c 69a9 a2bd
00000170: d6c2 843d 324c e3bd 8ffb bf3d b890 393d
00000180: f8a6 10be 715e 103c a208 e0bd dc48 88bb
00000190: 64b6 61bd f558 8bbd 15b9 573d b15e 71bd
000001a0: 61fe 623d 3488 87be f5c9 bcbb 798f a23d
000001b0: ef03 0fbd 3dc1 8f3d 1913 ea3d 94a5 a6be
000001c0: 05e2 223e d1b8 16be a8ba 483d 606c 9c3d
000001d0: 2f21 f9bd 952d 21be 5adb b1bd 66b7 c03c
000001e0: ee1c 503c 09fa 623e 85be 67bd d417 293c
000001f0: b861 ed3d 83bc d9bd ada3 69be 8137 a6bd
00000200: 1a64 d83d df03 cdb9 66e1 6fbd 14a0 033d
00000210: 58f8 b43d 5905 063e b8ae 9f3d fd8c f8bc
00000220: 3c12 f0bd e753 123e c91f 30bd bb31 cbbb
00000230: e968 8c3d 76bf 00be b256 0bbd 91d9 e7bd
00000240: 28ed 7abd e76f 5cbc 1d95 6ebc 2eae b33d
00000250: 311a 503d f7ec 7a3c 89f9 75bc d833 efbd
00000260: 4168 d6bd b5ac 3f3c eff0 143d f505 83bd
00000270: e670 913c 4139 b5bb 2adc cc3d 2e5e 8cbd
00000280: 8a08 233d 3e1a bfb9 bfa7 9f3d 57d3 e3bc
00000290: 9e96 cebd 6c54 01be 8fa9 ae3c 24db ccbd
000002a0: 41e6 e2bd 4a06 36bd bfda 15be 6472 d1bc
000002b0: e874 d6bd e19b 673e a357 b0bd 2563 1f3e
000002c0: d67f f3bd 489c 4b3d 0901 793c 47ef 673d
000002d0: 177c 8bbd 0f74 c33d f39f 953d fb3f acbc
000002e0: 1d6e c73c 47f4 50bd 2967 0c3c 17d3 a5bb
000002f0: a2ff 38bd 200b f93d dc0f 1dbc 24a4 d6bd
00000300: 6806 08bb d73e ae3d c59b 953d 114e 01bd
00000310: 30bb d53d acb2 d23d d364 cfbd d870 073e
00000320: c0fe 6c3d 5e06 5cbd 1c02 673c 1989 c43c
00000330: 2a9c dfbd a1bb e23c e71b ed3d 325c 983d
00000340: cb23 f1bd 2dda 49bc c4b9 83bd 3f0c 6dbd
00000350: eb08 d8bd c90a 62be d4b1 cbbd 0749 1abe
00000360: 6897 623c 6767 f93c 5cd9 cc3d 12bb afbd
00000370: c64b 4e3c 8ccd d33d 801f d3bd 7958 4ebe
00000380: 18b3 ed3d 8ea1 073e c706 debd 4bfc a23d
00000390: b40f 88bd 237b 9bbd 5a88 90be 5289 2a3d
000003a0: e709 c5bc 7af4 0f3d d82f 823d 4deb 503b
000003b0: fc5e e8bd c801 adbd dd0a 483d aaa4 de3d
000003c0: 0394 e0bc 630a 08be 2d1e 23bd 694b 84bd
000003d0: 1ce1 8939 ee1f 9b3c e77a d1bd e8f6 abbc
000003e0: 4380 013e aa29 153e 63c2 5d3d a4ae 0abe
000003f0: 0c9c 8d3c d536 7abd fc49 9bbc 2b08 5fbc
0.04850646 0.061933342 0.078627646 -0.07613046 0.045525193 0.020726979 -0.1432452 0.0364198
-0.018478177 0.012834747 0.11538665 0.036174204 0.16410753 0.044821512 -0.22325437 -0.09221977
-0.009811142 0.22491536 -0.09825927 0.3018217 -0.05232607 -0.010663274 -0.038566276 0.06646454
0.014023704 -0.14076498 0.11270604 -0.11439862 0.017367762 -0.17576292 -0.061598364 0.16182528
-0.084841065 0.12489537 -0.108571395 -0.073509775 0.16242905 0.054545738 0.18260099 -0.0231041
0.08088696 -0.03109725 -0.012726802 0.10378204 -0.08979853 0.01445489 -0.06705945 -0.24288645
0.022821836 0.18244328 -0.090685405 0.0012986436 0.08588163 0.229373 0.07951461 -0.010116066
0.010956745 0.11099165 0.028312922 -0.006529996 0.0041558896 0.014917477 0.030985806 0.0016418281
0.08407103 0.06727512 -0.07144135 0.07286829 -0.017706458 -0.023491763 -0.1468368 0.03418202
0.14241756 -0.049396828 -0.033865303 -0.19920194 0.09188882 -0.07115791 0.00088233576 -0.12916143
0.06844345 0.05672697 0.23668505 0.08671722 0.23461774 0.03490752 -0.07815377 -0.22252205
-0.0676691 0.067035906 0.019408239 -0.07942469 0.064824745 -0.110985175 0.09374153 0.04530403
-0.14126194 0.008811579 -0.109391466 -0.004159076 -0.055105582 -0.068040766 0.052666742 -0.058928195
0.055418376 -0.26471102 -0.00576138 0.079375215 -0.03491586 0.07019279 0.11429424 -0.325482
0.15906532 -0.1471894 0.049006134 0.076378584 -0.121645324 -0.15740044 -0.08684416 0.023524951
0.01270221 0.22165693 -0.056578178 0.0103206225 0.11590904 -0.10631659 -0.22816344 -0.08116055
0.10565968 -0.0003910353 -0.058564566 0.032135084 0.0883643 0.13087977 0.07796997 -0.030340666
-0.11722228 0.14289819 -0.042999063 -0.0062009967 0.068559475 -0.12573037 -0.034018226 -0.113207944
-0.061261326 -0.013454414 -0.014561919 0.087734565 0.050806228 0.015315286 -0.015013107 -0.1167981
-0.104691036 0.011698891 0.036362585 -0.063976206 0.01775403 -0.005530507 0.100029305 -0.06853901
0.039803065 -0.0003644991 0.07795667 -0.027810736 -0.10087322 -0.1262986 0.021321086 -0.10002735
-0.11079074 -0.04443959 -0.14634226 -0.025567241 -0.10471517 0.22618057 -0.086104654 0.15565164
-0.11889617 0.04970959 0.015198001 0.056624677 -0.06810778 0.09543621 0.073058985 -0.021026602
0.024344498 -0.05101421 0.008569517 -0.0050605643 -0.045165665 0.12160325 -0.009586301 -0.10480526
-0.0020755772 0.085080795 0.07305101 -0.03156859 0.10436094 0.10287985 -0.101266526 0.1322664
0.057860136 -0.05371701 0.014099624 0.023991155 -0.10918458 0.027677359 0.115775876 0.0743946
-0.11774405 -0.012320084 -0.06431916 -0.057873007 -0.10548576 -0.22074427 -0.099460274 -0.1506692
0.013830043 0.030444814 0.100023955 -0.08580603 0.012591308 0.10341939 -0.103087425 -0.20150937
0.11606425 0.13245222 -0.108411364 0.07958277 -0.0664362 -0.07591846 -0.28229028 0.041634865
-0.024052573 0.03514526 0.06356782 0.0031878531 -0.11346242 -0.08447605 0.048838485 0.10871251
-0.027414327 -0.13285212 -0.0398237 -0.06459696 0.00026298396 0.018936124 -0.1022852 -0.020991758
0.12646584 0.14566675 0.05414046 -0.13543183 0.017286323 -0.06108745 -0.018956177 -0.013612787

bias_ih_l0 f4 [192]
00000000: 7663 e1bc dabb a73d 14c0 433d a145 e0bd
00000010: 0c8e c03d ffe0 943d 59bf 05bd e8de 05bd
00000020: 06af 9b3d c200 ddbc 77c7 e53b 2072 c0bd
00000030: 66ca 77bd 7387 79bd 0da8 9dbd a499 22bc
00000040: 21d7 f2bd bde0 b9bd 1cec 173e 47f1 90bd
00000050: ed94 cc3a d0ca 7abd 6e25 b3bd 52f4 97bd
00000060: bfff 13bd 0a9f 17bd 590a 023e d696 273e
00000070: 3b90 38bd 5381 f43c 73ff 5a3b ff8b 9c3d
00000080: 0b4b 85bd f7d3 2dbd 29a8 083e 103c e53d
00000090: 7e0b 973c 995b 8abd 2430 6b3d 8202 0b3d
000000a0: e0eb cf3d a9f8 c1bc 83fc 303e f9ef d93d
000000b0: 0e87 b13d e172 e43d ed31 afbd 92b3 e43d
000000c0: cdba d43d a14c 56bb c9ef 763d 0ec0 c23d
000000d0: ba0c 93bd 485f e43d b15b af3d 2ba7 a43d
000000e0: bb86 0cbd e393 eebd 52d1 a93d eaf3 a53d
000000f0: cd05 1e3e 2c5c 2a3d 8dd2 d0bd 5b21 243d
00000100: 19ec 1abd 1931 a6bd d599 89bd 3cf6 d93c
00000110: 3c62 ec3d 8b52 fd3d e3dd 103d 91a6 e4bd
00000120: 6665 55bc bcab 31be b035 8cbe a5ec c0bd
00000130: 5e82 1ebe 10a7 74bd ea6e 67bd 4d33 1abe
00000140: ef47 f2bd 6fd5 853d 2044 fd3d eadc 47bd
00000150: 0f75 973d e866 d7bd e78a c13d 1529 d9bb
00000160: be3d f03c 8f0d 41be b474 44be 5129 87be
00000170: 473b f7ba 679a 033a b001 6ebe b2d9 2a3d
00000180: b165 95be c9ff 3bbd 1515 b03d a947 0abe
00000190: 20dd 92bd 125c 3bbd cbd0 443d ca12 ee3b
000001a0: 23b7 7a3b eaab c0bd 02e0 1e3e f8e9 25be
000001b0: 67dc a13c f1f6 98bc 905d 9c3d d17e 4e3d
000001c0: c8b2 06be 50d7 d13d 22af 98bd c631 5bbe
000001d0: 456d 4abe 2e9e 043e a9f3 34bd b811 193e
000001e0: de1c 6cbd 5de7 ecbd a7c1 2dbd f059 99bd
000001f0: 7a07 23bc 4c99 63be 63ae 7fbc 2b21 973c
00000200: bd93 f5bd bb3f 13be a8f4 b1bd 35f2 6d3d
00000210: 9f22 dd3a ab03 883d c9b8 3b3c 161e c13d
00000220: 80da 393c e1de d53d 9936 cfbd 186f 1b3e
00000230: cb75 a0bd d654 0f3d 5241 9d3d 15a8 2c3e
00000240: 3d84 aa3d 99a8 9f3d 138e af3c 1b29 2b3d
00000250: 1685 b0bd 6dd9 32bc aafc f33d 446f be3d
00000260: 56fe 8cbc 4bf6 8c3d 77b6 1e3e ee2e 0aba
00000270: 6600 c73d 46e8 0bbd 921b 5fbd d917 bf3d
00000280: 46df d7bc e94e f53d 3e06 c43a 60f6 0abe
00000290: 4b39 50bd 8ee8 a0bd 442d 913d 9451 ce3d
000002a0: 794d 933d e3b8 e93d 3e46 8ebd f024 94bb
000002b0: 95f0 70bb ac1d f7bd 95f4 353d 83b5 91bb
000002c0: a9c7 e43d b786 213b 0e1b 18be 7545 533d
000002d0: 13a6 373d 67ed ac3d 6b43 fa3d 76e2 cfbd
000002e0: 1536 743b 9886 a1bd 40b9 4cbc aaee 0a3e
000002f0: 30d8 513d 1949 75bd 48c9 35bd 5b87 df3d
-0.027513247 0.08190127 0.0477906 -0.10950781 0.09402093 0.07269477 -0.032653186 -0.032683283
0.076017424 -0.0269779 0.0070123035 -0.093967676 -0.060495757 -0.06092019 -0.07698069 -0.009924326
-0.11857439 -0.090760686 0.14836162 -0.0707727 0.0015608348 -0.061228573 -0.087473735 -0.07419647
-0.03613257 -0.037016906 0.1269926 0.16366133 -0.045059424 0.029846823 0.003341642 0.0764389
-0.06508454 -0.042438474 0.13345398 0.11193097 0.018438097 -0.06755752 0.057418957 0.03393794
0.101524115 -0.02367814 0.17283826 0.10641474 0.08668338 0.11154724 -0.085544445 0.11167063
0.10387192 -0.0032699483 0.06028727 0.09509288 -0.07180162 0.11150986 0.085624106 0.08039697
-0.034308176 -0.11649301 0.08291878 0.081031635 0.154319 0.04159181 -0.101964094 0.040070873
-0.037822817 -0.081148334 -0.06718794 0.026606672 0.11542174 0.123692594 0.035367858 -0.111645825
-0.013024664 -0.17350668 -0.2738471 -0.09420136 -0.15479419 -0.059729636 -0.05650226 -0.15058632
-0.118301265 0.0653485 0.123665094 -0.048794664 0.07395374 -0.10517675 0.09450322 -0.006627212
0.029326316 -0.18852828 -0.19185144 -0.2639871 -0.001886227 0.0005020261 -0.23242831 0.041711517
-0.29179147 -0.045898233 0.08597771 -0.13503899 -0.071710825 -0.045742102 0.048050683 0.0072654234
0.003825613 -0.0940779 0.1551514 -0.16202533 0.019758416 -0.018672438 0.07635033 0.05041391
-0.13154137 0.10246146 -0.07455279 -0.21405706 -0.19768246 0.12950966 -0.044177685 0.14948165
-0.057644717 -0.115675665 -0.04242101 -0.07487857 -0.009950513 -0.22226447 -0.015605542 0.018448433
-0.119910695 -0.1437978 -0.086892426 0.058092315 0.001687128 0.066413246 0.01145763 0.094295666
0.011343598 0.104429014 -0.101178356 0.15179098 -0.07834967 0.034993015 0.076784745 0.16860993
0.08326004 0.07795829 0.021430051 0.041787248 -0.08619134 -0.010916096 0.11913426 0.09298566
-0.01721112 0.06882914 0.15499292 -0.00052712753 0.09716873 -0.03415706 -0.054469652 0.093307205
-0.026351582 0.119779415 0.0014955474 -0.13570547 -0.05083589 -0.07856856 0.07088712 0.100741535
0.07192511 0.114122175 -0.069469914 -0.004521005 -0.0036764492 -0.12066206 0.044422705 -0.0044466867
0.11170895 0.0024646947 -0.1485407 0.05157991 0.044836115 0.084437184 0.1221989 -0.10150616
0.003726368 -0.07887 -0.012495339 0.13567606 0.051231563 -0.059884164 -0.04438141 0.10914489

bias_hh_l0 f4 [192]
00000000: c4d8 633c fa6b f33c 4540 863d 17c0 d4bd
00000010: 0798 ce3d b136 b73d 59c5 3cbe 677e a3bd
00000020: eb75 e03c 0f46 603d 42ca 323d f741 33bc
00000030: 461a 49bd 5aef d4bd c170 a6bd d66e 163e
00000040: a3cb 153d d017 0d3d d993 df3d ddcb 19bd
00000050: 45d0 4dbc 0305 c93d 41bf 1a3d 5b91 b9bd
00000060: 3c32 2a3e 6738 9c3b cefb c33d 8c7e fc3c
00000070: 98d1 f03d 2f41 edbd 1590 173e e7db 113e
00000080: 6cc7 183c 84a1 963d 2b29 9d3d 86bf 123d
00000090: 5478 b53d f7d3 dc3d 5b53 9dbd 7ca8 383d
000000a0: 039b 43bd e10c 9fbd ff8f 0e3d 4de3 67bd
000000b0: f2d2 92bd 109b 13bd c48d 6ebd 96c3 b6bd
000000c0: ad75 6bbd 6ca1 773d 4972 1a3e cffe 043e
000000d0: 60a7 0b3d c230 f03d aa60 1bbd f504 343d
000000e0: 260f cbbd 6e1a 58ba 4ea7 7fbd 128a 1639
000000f0: de75 2d3c 8a46 e53d fd70 56bd c20d 063d
00000100: 0324 f7bb 038a 823d b1af f9bc 0d80 4fbd
00000110: 0a56 5a3e 29ca 86bd 15df 0f3e fafd c0bd
00000120: caa7 72bd cbbb c83c 85bb 80be b1fe 4ebe
00000130: 9a38 69bd adc9 1abd ffa1 0bb6 a879 0cbe
00000140: 1d8b 6bb8 b0f8 44bd 1cf5 3e3e a66b 3a3e
00000150: 5cda 0b3e 06b7 4ebe da69 9dbc a43d 42be
00000160: 831c ccbb a866 57be 49c8 07be c10f 96be
00000170: 90fd fe3c e567 873d cf60 46be ff9b 4d3d
00000180: 746d 8dbe 265e 4cbd 7236 afbd 18e1 e83c
00000190: 6504 4abd 8608 05be d38f 5c3d a1ae 113e
000001a0: fef8 ce3b 1217 21bd 370b a7ba bec5 9fbe
000001b0: 47ab 04be 0424 603d a711 363e e618 bdbd
000001c0: 7e3c d9bd ff1f b23d 37c2 49be 4e96 fabc
000001d0: 068d c5bd c31c b7bb e46a 41bd cb93 413e
000001e0: acaf c63d 9ecd 873d bc38 adbd 7519 06be
000001f0: 5c4a 6d3d 695f e9bd 74f4 37bd 897f 383d
00000200: 41a4 c4bd e9bf 5cbd 9bc2 47bd 05fd 083d
00000210: dabf fcbd e541 043d b78c ffbd d839 013c
00000220: b6b1 d1bc 2ba4 dcbc e116 623d 20ce dd3c
00000230: 6643 e43c 98b8 0abe 1943 81bc 7734 133d
00000240: 7b37 ffbc 42ae 1d3e bd55 44bd 4f50 c6bd
00000250: 3ea3 afbd 72b0 fc3d 4ce2 d13c 8697 0ebd
00000260: 7e33 613c 0d6a 233e f2f5 a73d ed9b 6f3b
00000270: abb0 6b3d 5edc b4bc 7898 7d3c d1d1 033e
00000280: d294 02bd b712 98bd 57d6 c03c 2d1a 14bd
00000290: cc73 c7bd eb67 4cbd 3cb1 463d fe06 96bd
000002a0: 65f1 4f3d 32ac e2bc f09a 10be 20fd e4bd
000002b0: 4649 df3d cbd6 c33d 42d5 dd3d 606e ce3d
000002c0: 9600 8e3d 0fff 3b3d 8f7b 23be c779 e33c
000002d0: 3ca6 1bbd 1d63 87bd 398d ce3d 19ef c3bd
000002e0: 8251 58bd 2ff7 d73d 6586 8b3d e073 50bc
000002f0: 77c2 e83d 9bd1 ac3d 2714 5d3d 01fa bf3d
0.013906661 0.029714573 0.06555227 -0.10388201 0.10087591 0.089459784 -0.18434657 -0.07983094
0.027399978 0.054754313 0.04364992 -0.01094102 -0.049097322 -0.10397215 -0.08126975 0.14690718
0.036571156 0.034446537 0.109168716 -0.037547935 -0.012561862 0.09815409 0.03778005 -0.090609275
0.16620725 0.004767466 0.09569512 0.030822061 0.11758727 -0.115846984 0.14801057 0.14244042
0.00932489 0.073550254 0.07673868 0.035827182 0.088608414 0.107826166 -0.076819144 0.045082554
-0.047755253 -0.07766128 0.034805294 -0.056613255 -0.07169141 -0.03603655 -0.058240667 -0.08924024
-0.05748527 0.06045668 0.15082659 0.12987827 0.034095168 0.1172805 -0.037933983 0.04395004
-0.09914999 -0.00082436844 -0.062415414 0.0001435655 0.010587184 0.11195095 -0.052353848 0.032727964
-0.0075421347 0.0637398 -0.030479284 -0.050659228 0.21321884 -0.06581528 0.14049943 -0.09423442
-0.059242047 0.02450361 -0.25143066 -0.20214345 -0.056938745 -0.03778999 -2.0806908e-06 -0.13718283
-5.6157925e-05 -0.04808873 0.1864819 0.18205127 0.13657516 -0.20187005 -0.019215513 -0.18968827
-0.006228985 -0.21035254 -0.13259996 -0.29308894 0.031126767 0.06611613 -0.19372867 0.050197598
-0.2762257 -0.049894474 -0.085553065 0.028427646 -0.049320597 -0.12991533 0.0538481 0.14226772
0.0063163033 -0.039328642 -0.0012744431 -0.31205553 -0.12955962 0.054721847 0.17780171 -0.092332646
-0.10607241 0.08697509 -0.19702993 -0.030589249 -0.09646039 -0.0055881455 -0.04722108 0.18904035
0.097014755 0.06631015 -0.08458087 -0.13095649 0.057932243 -0.11395151 -0.044910863 0.045043502
-0.096016414 -0.053893957 -0.048769575 0.033444423 -0.1234128 0.032289404 -0.12478011 0.007887326
-0.025597434 -0.02693375 0.0551976 0.027075827 0.02786417 -0.1354698 -0.015779065 0.035938706
-0.031154385 0.15398505 -0.04793333 -0.096832864 -0.08576058 0.12338342 0.025620602 -0.034812473
0.013745187 0.15958424 0.08201207 0.0036561445 0.05754153 -0.022077736 0.015478246 0.12873007
-0.031880207 -0.074254446 0.023539705 -0.036157776 -0.097388834 -0.04990379 0.048508868 -0.073255524
0.05076732 -0.02767 -0.14121604 -0.11181092 0.10902648 0.09562453 0.10831691 0.10079646
0.069337055 0.04589754 -0.15965103 0.027768029 -0.03800033 -0.06610701 0.1008553 -0.09567089
-0.052812107 0.105451934 0.06812743 -0.012722939 0.11365216 0.084384166 0.053974297 0.09373856

weight f4 [384, 64]
00000000: 048f 21be a2b2 663d f73b c83d 1eca 06be
00000010: acd2 ebbc d1e8 21bd 4415 babc 5584 0f3d
00000020: 65eb 953c 3fe5 c6bd c9e8 03be 9ceb 7b3d
00000030: d663 703e b146 6c3c 1343 283e ab3e 40bc
00000040: 7f8f b8bd 5180 c8bd a654 babd 1091 d83a
00000050: 75ae 2cbe 6ffe 383d 27d5 b3bd 2fa7 5a3d
00000060: 3ace d0bd fce1 023e c24f b33d 6cad 47be
00000070: cb3e b63d 67a6 133e 2f56 b03c ffee 59bc
00000080: a3d5 753e 195d 2b3e 3ae5 86bd 8284 1fbe
00000090: 52fe b13d b081 25be 324b 23be 27be 893d
000000a0: dab9 513d bbbb 99bd ed64 d7bc a5c8 af3d
000000b0: 4740 bfbd 68cf 61be 5693 b2bd 7958 6c3e
000000c0: 56b1 cf3d 2fc8 ecbc 1766 2a3d 0456 b03d
000000d0: fa7f c33d c8f4 19be 2899 753d de40 393e
000000e0: 53c9 8dbd 0280 2fbe a9c3 c3bd 3736 ac3d
000000f0: 1889 1c3c b5be cebd 3979 41be 6a9c 823d
00000100: d181 e73d e899 053e 705f 9d3d 0025 edbd
00000110: b19f 963c f111 2cbe 82de 943c fb3e 0e3d
00000120: ef10 be3c 6d4d b23d 920c 0d3e a8fb f6bc
00000130: eb28 8d3e 5b2e 953c 915d 50bd 5cef f4bd
00000140: ebf5 0abe 6755 793c b122 ac3d fd4d ff3d
00000150: 903b 8cbc f162 6dbd 4b17 5b3d 4327 c43c
00000160: 628e 503d bb41 99bd bd12 f63a b12d 393d
00000170: 8438 19be 33c4 953e 0f35 9ebd 8f87 04bd
00000180: 5321 083d cb6f 253e 9e34 b4bd 191d 623d
00000190: d533 313c 84a6 1b3c 9eea 96bd 87a3 343e
000001a0: f574 0d3d eb69 d6bb dac4 7f3d 06a8 913d
000001b0: f85d e13c 46d0 86bd 36b0 0dbe c6dc 003d
000001c0: bc50 ea3d fee6 27be 4c3b 59bd 77d1 ef3b
000001d0: 8c88 e3bd 6573 8c3d cd3c a53d 7cf1 873a
000001e0: 792b e53d 2b2c 123d 3d55 cdbc 0068 2dbe
000001f0: f6ad 89bd 59a7 e7ba 1cd3 2fbe 88d2 76bd
00000200: 63be c63d 5d3b 903d 176f cfbd 90d2 6c3c
00000210: eb38 3c3c 9161 f63d afa1 823d bc4c d2bd
00000220: 8fbe 353d 6f52 a93c 52aa 41bb 95de 063e
00000230: eb9f 0f3e c03d 21bd a5d0 bb3d 8a67 ce3b
00000240: 5431 503d b190 083e c52d 793d ba3e 893d
00000250: 5eef bcbd e4c5 843d 998a ca3d e70a dc3d
00000260: 976a 0abe 291e 673d 11e0 2e3c b554 82bd
00000270: cd1c 39bd 0a99 24be 1acc 15be 1cff a9bd
00000280: b8ee d4bc f94f afbd 0bcf 323c 0d56 2d3d
00000290: fd4a 5cbd 4e18 13be fed9 edbd 41c0 7c3c
000002a0: e01c 903c adf9 10bd 67fb 64bd 1195 01be
000002b0: 8ab5 993c 3d07 2cbd 545e b3bd 9e81 233d
000002c0: ccf9 473d 9a86 dfbd 6ecd 8fbd 3e48 e2bc
000002d0: 27ce b53d 5ceb 2b3d a211 a43d a2cf cc3d
000002e0: aba4 cf3d a44e c1bd 050f 043e b94b 2f3d
000002f0: 0f22 90bd ad5f b6bd ad92 eb3d e0ea 6fbd
00000300: 907c 02be 6cd6 5a3e 1107 213e be33 28be
00000310: 0005 ad3d 4593 91bd bfef 8e3c 6018 873b
00000320: 7d0b 143e dc28 13be 18aa e03d 3970 21bc
00000330: e2cb a03d 1bf3 2abc a085 5abd f497 0d3d
00000340: d0aa dfbc 9572 a0bd 07cc 9abc 66d0 0dbe
00000350: 56d1 953d 198d 16be cfa5 29bc 8170 12be
00000360: fe1d 1b3d 7ff2 0d3d 7719 fc3d d8f8 c93d
00000370: bffd 83bb 89c6 423e 92bb 84bd 07d6 8cbd
00000380: ca4c 27bd 39eb 1dbd 0bea f1bd a5bc 13bd
00000390: 9fdf 81bd 8401 923d 5b35 35be 4bf7 6b3d
000003a0: 4f5f 93bd c9bf 933c 8cfe c8bd 25c8 8c3d
000003b0: 09b7 16bd c67f f03d d08f d4bc 453e f23d
000003c0: 3d78 183e e880 7ebe a90b 293e 109f 57bd
000003d0: b70a c7bd a064 30be 2072 783d b84c 753d
000003e0: f016 8a3d f890 02bc 6477 bdbd 6370 4a3c
000003f0: 4e64 37bc 5928 a23d d8e1 e4bd e41a 91bd
-0.15777212 0.0563227 0.097770624 -0.13163039 -0.02878698 -0.03952867 -0.022715218 0.03503831
0.018300721 -0.09711694 -0.12881769 0.06150399 0.23475584 0.014421151 0.16431837 -0.011733691
-0.09011745 -0.097900994 -0.09098177 0.0016522724 -0.16863425 0.04516452 -0.0878089 0.053382095
-0.101955846 0.12781519 0.08755447 -0.19499749 0.088986956 0.14418946 0.02152547 -0.01330161
0.24007277 0.16734733 -0.0658669 -0.15577891 0.08691086 -0.16162753 -0.15946653 0.06725722
0.051202632 -0.0750651 -0.026293242 0.08583192 -0.09338432 -0.22051775 -0.08719508 0.23080625
0.10141246 -0.028904049 0.041601267 0.08610156 0.09545894 -0.15034783 0.059960514 0.18091151
-0.06923165 -0.17138675 -0.095588036 0.08408778 0.00955417 -0.10094968 -0.18893899 0.0637749
0.113040574 0.13046992 0.07684219 -0.11579323 0.018386694 -0.16803719 0.018172506 0.03472803
0.023201434 0.08706174 0.13774326 -0.030149296 0.2757028 0.01821058 -0.050870482 -0.11959717
-0.13570373 0.015218115 0.08405054 0.12466047 -0.017118245 -0.057955686 0.05348901 0.023944503
0.050917037 -0.0748324 0.0018773895 0.04520959 -0.14962965 0.2925125 -0.07724964 -0.03235584
0.033234905 0.16155927 -0.087990984 0.05520353 0.01081558 0.00950015 -0.073689684 0.17640506
0.034535367 -0.006543388 0.06244359 0.07112126 0.027510628 -0.06582694 -0.1383675 0.031460546
0.1144118 -0.1639671 -0.053035066 0.0073186713 -0.111100286 0.06857947 0.080682375 0.001037165
0.111899324 0.035686653 -0.025065059 -0.16934204 -0.067226335 -0.0017673775 -0.17170376 -0.060259372
0.09704282 0.07042573 -0.101286106 0.014454499 0.01148818 0.12030328 0.06378495 -0.10268542
0.044371184 0.02066919 -0.0029550982 0.13170846 0.14025848 -0.03936553 0.09170655 0.006298964
0.050828293 0.13336445 0.060834665 0.06701417 -0.09225343 0.06483057 0.09889717 0.10744267
-0.13517223 0.056425247 0.010673539 -0.06363813 -0.045193482 -0.16074005 -0.1462864 -0.083006114
-0.025992736 -0.085601754 0.010913621 0.042318393 -0.053782452 -0.1436474 -0.11613844 0.015426696
0.017591894 -0.03539436 -0.05590382 -0.1265452 0.018763322 -0.04199909 -0.08758226 0.039918534
0.04882221 -0.10914345 -0.070216045 -0.027622338 0.08877211 0.041972503 0.08011176 0.1000054
0.1013883 -0.09438828 0.12896354 0.042796824 -0.07037746 -0.089049675 0.115025856 -0.058573604
-0.1274283 0.21370858 0.15725352 -0.16425988 0.08448219 -0.071081676 0.017448304 0.004122779
0.14457507 -0.14371055 0.10969943 -0.009853416 0.078513876 -0.010433937 -0.05335009 0.034568742
-0.02730313 -0.07834355 -0.018896116 -0.13849029 0.07315318 -0.14702262 -0.010354473 -0.1430073
0.0378704 0.03465509 0.123095445 0.09861916 -0.0040280516 0.19021048 -0.06481089 -0.0687676
-0.040844716 -0.038554404 -0.11812218 -0.036068577 -0.063414805 0.07129195 -0.17696135 0.057608884
-0.07195913 0.018035786 -0.09814176 0.06874112 -0.03679565 0.11743121 -0.025947481 0.11828283
0.14889617 -0.24853861 0.16508354 -0.05264193 -0.097188406 -0.17225885 0.060655713 0.059887618
0.06742656 -0.007969134 -0.092512876 0.012355897 -0.011193348 0.07917852 -0.11175889 -0.07085207

bias f4 [384]
00000000: 735e b23d cd41 033e 1595 ff3d 7153 0e3e
00000010: 5bcf 75bc 5dee f63d fd8d a83d e12b cbbc
00000020: ad82 e6bb 9d34 ca3c 7dd6 0f3b c080 54be
00000030: 7438 073e 594c cc3c 72eb a53d d341 643d
00000040: fee6 0b3e 7e85 843e b881 bc3d 979c 073e
00000050: 53bf 9a3d ccfb c73d 4d0c 1ebd 5ce7 0d3e
00000060: f7f6 cbbc 10ab 6a3e cd3f 49bd 3d90 2ebd
00000070: 11b0 b43d e845 6a3d 4947 51bd daa3 3a3e
00000080: 5c14 2e3d 5d47 83bd a12b 3a3b 07a6 aebd
00000090: f880 dbbc a3c0 573e 3e2a c9bd bf11 513e
000000a0: 2c76 623c 3273 9ebc a2e9 f63d 7bae a4bd
000000b0: f4a3 353e e175 35bc de15 323e 237b 253e
000000c0: 31e2 123e 90db 50bd 0296 2e3d 812c f03c
000000d0: 7368 323e d15a ef3c 60e9 e23d fd6b 333e
000000e0: 8f25 3d3e 1274 953d 4112 2e3d 3b77 003e
000000f0: 52c0 643e 87da 3e3e b2c3 813d 9d2e 543d
00000100: eb67 bfbd 1fd2 67bb 9678 e0bd 517c a5bb
00000110: 55fa 1fbe 9a38 3dbe fea3 35be 76fe 45be
00000120: 91d1 82bb cb24 acbd 11fb 96bd bad5 b03d
00000130: 5655 3dbd b08f 79bc d05d 0fbe 2e52 3abe
00000140: b0c3 0cbe e6dd 81be 1cbd 44bd 367f 19be
00000150: 8426 36bc 4c30 07be 29aa 133a 98e9 1bbe
00000160: 4bb4 82bc 2f98 72be 66b9 12be b666 0c3d
00000170: b310 ecbb 365c eabd f4db af3c 25f2 17bd
00000180: c5b4 08be b5c6 863d 073a 3abd 763a d2bd
00000190: eb6c 78bd 81a9 9b3c ff0c 453c 9977 85bd
000001a0: aac1 f6ba 8df4 fcbc b4db c4bc f679 613d
000001b0: 8981 41be 5c6d 89bd 3cfe 97bd e662 2fbe
000001c0: 0865 02bd 3562 333d 7b8c 1bbe 1cb9 d5bc
000001d0: 6f46 46be ff16 cfba 4938 44bd bd5a 8ebd
000001e0: add2 04bc 7a42 b13c 7578 82bd 210b 07bd
000001f0: cf57 05be 9b7e 40be 8afb b7bd 0f2a 03bd
00000200: ece5 41bd b004 213c 0bcf 9d3c ffea 8bbd
00000210: bbd7 a2bd 5fe8 ed3d f9cf 2c3d 86dd 8e3d
00000220: 0112 193d b05e 65bd 4120 1dbe e68f 0e3d
00000230: a0c7 053e 1ef5 073d 3761 963c 71ff b83d
00000240: d9b9 20bd 417d 193e 6236 22bd fa5a 223e
00000250: adeb 52bc 9792 a73b a9d5 cbbd 144e 8d3d
00000260: e0cb dcbd 4af7 0d3e 7e4b e5bd 5acf 19be
00000270: aca6 bebb a5d5 0fbc 85da 2bbc f061 d03d
00000280: 4314 b93d 580b 81bc 307d de3c 0bed 25bc
00000290: 28cd 1c3d 6b90 f13d fdee 983d 09cd 703e
000002a0: d343 90bd b9a8 a7bd e070 3ebd a70b fdbd
000002b0: 5e90 8f3d 67c7 d2bd a424 babd 26a9 d9bd
000002c0: 8634 c63d 6913 16be 38e4 6d3d c508 d2bd
000002d0: 576b 103d c7bf c1bd 3d81 083d 3deb 3a3d
000002e0: 85f5 60bd 57e0 c3bc 4aa2 0bbd 9491 d03d
000002f0: 0cd2 bc3c aa8c 6b3d c9a2 8a3c 8911 a1bd
00000300: 2163 fabd 3359 27be 4c9f 0e3e ee1f 6c3c
00000310: f61e 053e bf13 263e eee9 093e fc76 e23c
00000320: 7e69 88bd 29f5 663b b2b1 fb3d 16c5 b83d
00000330: 10e1 41be f992 433d dd6f c83d ba9e 373e
00000340: bf2b 263d fa51 05bd 13fa ac3d 3bb7 de3a
00000350: 21d6 91bd 3750 c43d 2b1c ea3d be63 b03d
00000360: 97e5 cdbc cdcd a83b 0c4e a93d 79fd 8e3d
00000370: 3b3e f9bd 7d76 89bd 6887 173c d1ed b83d
00000380: c134 693e 54ac 493d 17ce f63c c5c1 a9bc
00000390: db38 1dbe a4de fa3d 2334 b1bc effc 3a3e
000003a0: 11c3 e53d 9172 433d d52c c2bd a6fa 423e
000003b0: 431c 153e edd3 8bbd 6448 5f3e 4d3b 073e
000003c0: c317 5ebd 6e6e 6d3c bb5f ae3d abbd 4f3e
000003d0: e602 5d3d f9aa 21bd 05e2 153d 5547 ef3d
000003e0: 4521 073d 6d7a 92bd 3093 c73c 5068 6c3c
000003f0: 6b9b 9abd 966a ed3d 7319 d1bd 9135 163d
0.08709421 0.1281807 0.12479607 0.13899018 -0.015003051 0.12057183 0.08230207 -0.024801197
-0.0070346207 0.024683291 0.0021947913 -0.20752239 0.13205129 0.02493875 0.08101548 0.055726837
0.13662335 0.25883096 0.092044294 0.13243328 0.075560234 0.09764823 -0.03858595 0.13857788
-0.024898035 0.22916818 -0.04913311 -0.042618025 0.088226445 0.057195574 -0.051093373 0.18226567
0.042499885 -0.06410096 0.0028407353 -0.08527761 -0.026794896 0.21069579 -0.0982251 0.20416926
0.01382212 -0.019342039 0.12056281 -0.08041092 0.17738324 -0.011075468 0.17391154 0.16160254
0.14344098 -0.05099064 0.042623527 0.029318096 0.17422657 0.02921811 0.11079669 0.17521663
0.18471359 0.07297529 0.042497877 0.12545483 0.2233899 0.18638049 0.06336154 0.051802266
-0.09345993 -0.0035373045 -0.109605 -0.00505022 -0.15622838 -0.18478623 -0.1773834 -0.1933535
-0.0039922674 -0.08405455 -0.07372106 0.08634515 -0.04622396 -0.015232012 -0.1400063 -0.18195412
-0.13746524 -0.25364608 -0.04803191 -0.14989933 -0.011117581 -0.13202018 0.0005632961 -0.15225828
-0.015955111 -0.23690866 -0.14328536 0.03427764 -0.007204139 -0.11443369 0.021467187 -0.03709616
-0.13350208 0.06580869 -0.045465495 -0.10265057 -0.060650747 0.019001724 0.012027024 -0.06516952
-0.0018826027 -0.03087833 -0.024030544 0.05504795 -0.1889707 -0.06710312 -0.07421538 -0.1712757
-0.031834632 0.04379483 -0.15190308 -0.026089244 -0.19362806 -0.00157997 -0.04790524 -0.06950901
-0.00810687 0.021638144 -0.063706316 -0.032969598 -0.13021778 -0.18798296 -0.08983524 -0.032022532
-0.04733841 0.009827778 0.019263765 -0.06831931 -0.079513036 0.11616587 0.042190526 0.06975846
0.037370685 -0.055998504 -0.15344335 0.0348052 0.13064432 0.033192746 0.018356903 0.090330966
-0.039239738 0.14989187 -0.039602645 0.15855017 -0.012873572 0.0051139104 -0.09952862 0.06899658
-0.107810736 0.13863865 -0.111960396 -0.15020505 -0.0058182087 -0.008778964 -0.010489111 0.1017493
0.09037068 -0.01575248 0.027159303 -0.010127316 0.03828159 0.11795124 0.074674584 0.23515715
-0.070441864 -0.08186478 -0.046494365 -0.12355738 0.07009958 -0.10291939 -0.0908902 -0.10627966
0.09677987 -0.14655842 0.058078974 -0.10255579 0.035258617 -0.09460407 0.033326376 0.045634497
-0.054921646 -0.023910685 -0.034090318 0.10184017 0.023049377 0.057507195 0.016923325 -0.07864673
-0.122259386 -0.1634262 0.13927954 0.0144119095 0.13000092 0.1621847 0.13468143 0.027644627
-0.06660746 0.0035241342 0.12289752 0.09021966 -0.18933511 0.047747586 0.09786961 0.17931643
0.040569063 -0.032548882 0.08446135 0.0016991863 -0.0712092 0.09585612 0.11431154 0.08612774
-0.025133891 0.0051514865 0.082668394 0.0698194 -0.12170073 -0.06712053 0.009248592 0.09029735
0.2277403 0.04923661 0.030127568 -0.02072228 -0.1535372 0.122494966 -0.021631306 0.18260549
0.112188466 0.04771668 -0.09481207 0.19040927 0.14561562 -0.06827531 0.21804959 0.13206215
-0.05422188 0.0144916605 0.08514353 0.20287196 0.053957842 -0.039469693 0.036592502 0.116835274
0.032990713 -0.07152257 0.024362177 0.014429167 -0.07549175 0.11592595 -0.10209932 0.03667218
